Digit-Recognize/v2/model.bin (torch, 249927 bytes, 10 tensors)

net.0.weight f4 [6, 1, 5, 5]
00000000: 269f e13d 4ad3 acbd b141 02be 0146 b83d
00000010: 0439 b4bc 3daf 20bd 21b0 593b ffea 90be
00000020: c3d1 18be 97bd 9c3e 2cec 45be ceeb 72be
00000030: 48af 97be 1c33 f43d 068a b13e 7ad8 90bd
00000040: ff6b c0bd 563c 8e3d a709 153e 74a7 fa3d
00000050: 32e6 44be 193f 113d 194a 0abe 309d 0b3e
00000060: 8d0a 803e d12a 00bd 1442 d5bd d3f6 30be
00000070: 1648 0bba bd53 33be 2ec6 a73a 3dae 2dbc
00000080: 9177 46be 845c c8be 4a0a 7dbd 15c2 133e
00000090: a22c 5f3e c3db 73be 0640 67be fa3d b8bd
000000a0: c9b6 28be fc7d 653e 2096 fe3c 82fd 473e
000000b0: 7738 483e 38c7 b13d ec29 34bd e8fb b63e
000000c0: fc6c 6b3e 08ed 753e 296e 743e 287d 393c
000000d0: 547e 1a3e ba6e 1c3e 98f2 ec3d d40f a7bb
000000e0: 6201 853e 5ec3 633c 976e 5f3e 1c04 683e
000000f0: cf19 b6be dd62 febb 1807 86bd 4ba7 a0bd
00000100: eb65 75bd f3e0 7bbe 0277 acbe 4a04 8dbd
00000110: a2a1 38be fc63 30be e7a0 993c a09f aabd
00000120: a768 2fbe 68f1 38be e44d 29bd 2251 d83d
00000130: 3342 813e 7189 e2bd b835 62be 2315 efbe
00000140: 01dd 62be 3571 b13d cb8b 813e eae6 a53e
00000150: 705c 91bd fd52 0ebd 5d11 b3bd 31f9 7f3e
00000160: 54f2 7c3e 3304 863d 32c4 ebbd 46d9 8bbd
00000170: 4ae4 e3bd 993f ff3d 95e8 163e 3006 dcbd
00000180: f555 5bbe c3ef 65bd 23e7 8dbe 09a5 c23d
00000190: 47a2 8bbd 3631 09be d0b3 1b3c 06cf b43d
000001a0: cda7 74bd 880f f7bd e027 183e b60d 2cbe
000001b0: 671b 38bc 35a2 0fbe 9dcc 85bd 987c 313d
000001c0: 3856 213d 4d4f 42bd 0b26 b23d 03ec 37bd
000001d0: 3ed0 423e 0086 f13b aa63 aebc 8c42 2d3d
000001e0: 0a5a 053e 5d8a 36be c229 72bc 92eb 2fbd
000001f0: f369 29bd e1b3 2abe 527d e13d 99ae 9d3b
00000200: f675 2a3d 413f 6d3e 6a33 2fbd e50c 5c3e
00000210: 1897 893e 3ef1 913e 7a16 3c3c 2f58 433e
00000220: af51 e13c ca73 4e3d ec54 3fbc 4340 7fbe
00000230: 2f22 9ebd 3219 2e3c be6a f9bd 2ab0 44be
00000240: b4e9 5ebe 3b47 31bc c0e0 b8bd 3c68 55be
00000250: 0a70 7abe 2183 01be
0.11016683 -0.08438738 -0.12720372 0.08997727 -0.021999843 -0.03922962 0.0033216553 -0.28304288
-0.14923768 0.30613396 -0.19328374 -0.23722765 -0.29625916 0.11923811 0.34675616 -0.0707254
-0.093955986 0.06945102 0.14554463 0.122389704 -0.19228438 0.035460565 -0.13504829 0.13634181
0.2500805 -0.031290833 -0.10412994 -0.17281656 -0.0005313171 -0.17512412 0.0012800151 -0.010600624
-0.19381548 -0.39133084 -0.06177739 0.14429505 0.2179437 -0.23814301 -0.22583017 -0.08996196
-0.16475977 0.2241134 0.031077445 0.195303 0.1955279 0.08680576 -0.043985292 0.35739064
0.22990793 0.24016201 0.23870148 0.0113213435 0.15087253 0.15276614 0.115697086 -0.0050983224
0.25977618 0.01390156 0.2181953 0.22657818 -0.35566565 -0.0077632503 -0.06544322 -0.078444086
-0.05991165 -0.2459753 -0.33684546 -0.06885584 -0.18030408 -0.17225641 0.018753482 -0.08331227
-0.17129765 -0.18060839 -0.041334048 0.1056235 0.25245818 -0.11061371 -0.22090805 -0.46695814
-0.22154619 0.08664171 0.25301966 0.32402736 -0.07097709 -0.034747113 -0.08743546 0.24997403
0.24701816 0.0654377 -0.11512031 -0.06828551 -0.11127527 0.12463302 0.1473716 -0.10743368
-0.21419509 -0.056136858 -0.27715406 0.09504134 -0.06818061 -0.13397679 0.00950332 0.08828549
-0.05973034 -0.12063509 0.14858961 -0.16802105 -0.011237002 -0.14026721 -0.065331675 0.043331712
0.039388865 -0.04743891 0.08698662 -0.044902813 0.1902475 0.0073707104 -0.021287758 0.042299792
0.13022628 -0.17826219 -0.014780464 -0.042949267 -0.041360807 -0.16670181 0.11010231 0.0048120734
0.041616403 0.2316866 -0.04277364 0.21489294 0.26873088 0.28504366 0.011479968 0.19076608
0.02750477 0.050403394 -0.011677962 -0.24926858 -0.07721364 0.010626124 -0.121785626 -0.19207826
-0.21768838 -0.010820205 -0.09027243 -0.20840544 -0.24456802 -0.12647678

net.0.bias f4 [6]
00000000: 8ca5 ac3d 9afe 363e 18d0 c43d 2895 97bb
00000010: 494b 0e3e 40a2 a1bd
0.08430013 0.1787056 0.09610003 -0.004625935 0.13895907 -0.07892275

net.3.weight f4 [16, 6, 5, 5]
00000000: 208b c93c 7597 70b9 cd63 8e3d dcd5 14bd
00000010: 9321 9cbd 86e9 723d ae73 8bbd 7a24 c43d
00000020: 7015 e3bb 3104 fabd 5c2a c83d 597e 49bd
00000030: d9c5 99bb e0d8 443d 0fd9 543d 3ae7 ad3c
00000040: 32c9 e8bb 1526 ac3d ff15 2abd 7321 19bc
00000050: 2504 663d 3103 06bd cc32 4dbd 5d2e 63bd
00000060: 2474 953d 33e6 2a3d 5fbb 65bc b479 b43c
00000070: 705d f53c 1e8e 12bc 49a8 41bc fe4b a7bd
00000080: ff81 163d 987f 88bc e02b 8b3d a5f0 a7bd
00000090: 530d 99bb 6fcb 1e3c 38fd e53c 42e9 a5bd
000000a0: 1e78 e4bd 1b4e 813d c0db aa3d 1793 33bd
000000b0: fa07 f5bd daf0 443d 2100 103e 4308 163c
000000c0: 22ef 6bbd f1c1 76ba 469f 85bd 3025 c3bc
000000d0: d974 bdbd f44c 87bd be3c a03b 04ae 02bd
000000e0: 5618 12bb 9ac6 e0bd 8c0f 64bd b4c3 8e3d
000000f0: d2ad 8c3c f530 b8bd 8cbe 2e3d eb67 513d
00000100: cf24 223d a1bb b2bd d9b4 acbd 17e6 78bd
00000110: 6ce0 cebc 85fb a5bd 985b b9bd 6f2e 8a3c
00000120: ba66 1d3d 9675 823c 534b c8bc 42b6 8b3c
00000130: 72a9 823d f945 b0bc d85c 16bd 8b12 7b3c
00000140: e613 8b3a 688c 863d 5e24 83bd a4fc f6bc
00000150: fb42 233d 29b1 773d cd0c 88bc bedd d1bc
00000160: 72fb 4c3d f1c2 4cba aec6 0bbd ebf8 aebb
00000170: 75b6 33bc aa35 823c 9fd3 123d f5db 243c
00000180: f3a2 96bd d11e 3bbd 6143 97bb 33de a63d
00000190: 5e56 833d 00cc 113c daf9 9e3d fa05 5abd
000001a0: cd9d 2b3d a5eb 34bd 8779 0ebd 2b25 523d
000001b0: 97f3 11bc 3377 9b3d 2b8b 6ebc 4e07 92bd
000001c0: 8e85 a8bd 5929 543d 0e60 b8bc d983 a5bd
000001d0: f516 833d 9f2f 163d 7eb1 463c 8e06 be3b
000001e0: 6302 5f3d cd02 223d 5ca7 a8bb fbca 09bd
000001f0: 6e05 4abb 668c cb3b ddb1 b2bd ec6c 27bd
00000200: c5bb b0bc 217c 9bbc e896 1cbc 8df9 25bd
00000210: 935a 1a3b 4ae6 26bd 2ce0 08bd 34e1 b6bd
00000220: 7137 c5bd 86a7 b8bd 69bb 33bb 9f3f 9e3c
00000230: b224 43bc 4989 a33c c744 6f3c d76c 2d3d
00000240: 072e 74bc 89ab 6abd 930d d6bc 449f 30bc
00000250: a168 b53d 6842 df3c d4f4 08bd 776c a0bd
00000260: b17d 83bd daaf 1dbd d303 70bd 94c5 98bd
00000270: 0dfc b2bc 41c1 d7bd 39c0 d3bc deb3 733d
00000280: 13ee 983d 6224 e13d 274e 0dbd bea6 25bc
00000290: f4e0 ce3d 2508 00bd 4aa8 2d3d 2a10 8dbd
000002a0: 25db 44bd e056 103e 43a7 e63c 0ddb e6bb
000002b0: 9b58 dbbd f97a 193d 1438 843d 072f 973d
000002c0: e97e 22bd 140a efbc 3991 f13c bdc2 15bd
000002d0: 1b49 833d fbc4 933d e23d bbbc 1a00 4fbd
000002e0: 30e3 023a 6329 743c 4ca6 5c3d d44d a3bc
000002f0: 179a 94bd 6009 443d d3a9 023d e6f2 21bd
00000300: 29a8 953d fa93 453c c67d 50bd 420d 843d
00000310: a506 2ebd 40c6 913d 6cda 18bd 1e5a 21bc
00000320: b5bd 5dbd b0a5 d2bc 656b 04bd db2b a03d
00000330: a8b8 3abd 84f3 85bd e69a 86bd fd4d 70bd
00000340: 1e01 68bd 5125 87ba b256 e0bb 3429 84bd
00000350: 0cd9 68bd 6a43 acbd adcf aabd e17d 873d
00000360: d73b bebd 0c4a bfbb 8624 bf3b fc5b 15bd
00000370: 8b2e 73bd e19e d23c d1f1 96bd 530b c0bd
00000380: abf3 8fbd 34b7 093b 5132 273d 3e7f 5cbc
00000390: 5363 f039 b8e8 b9bc b585 96bd 1bc7 943d
000003a0: c1dc 83bd 3c88 de3c c4a1 d83c 7fe4 333b
000003b0: 5d11 993d 8eb7 dfbc 60cb 333c 48e7 2e3d
000003c0: f606 8a3d bbe2 6abd ad40 783d 2a6a 4cbd
000003d0: 78ac d6bc 33fa b0bd 531a 973c 533d 1dbc
000003e0: 0d25 ccbd 69a2 113d 0439 7abd 6a8d 813d
000003f0: 66b8 153d 5f0c 3dbd 8545 57bc 6ea7 73bd
0.024602473 -0.00022944606 0.06952629 -0.036336765 -0.07623591 0.059304737 -0.068091735 0.0957727
-0.006930046 -0.12207831 0.097737044 -0.04919276 -0.0046927747 0.04805839 0.051964816 0.021228421
-0.0071040625 0.08405701 -0.041524883 -0.009346354 0.056156296 -0.032717887 -0.05009727 -0.055464137
0.07297543 0.04172344 -0.0140217235 0.022030689 0.029951781 -0.008945016 -0.011819907 -0.08168791
0.036745068 -0.016662404 0.06795478 -0.08200196 -0.004670778 0.009692057 0.028074846 -0.08101131
-0.11155723 0.063137256 0.08342695 -0.043841448 -0.11964412 0.048081256 0.14062549 0.009157243
-0.0576011 -0.0009413055 -0.065245196 -0.023821443 -0.092508025 -0.066064745 0.0048900535 -0.031904235
-0.0022292337 -0.1097538 -0.05567889 0.06970921 0.017172728 -0.08993713 0.04266219 0.051124495
0.039585885 -0.087271936 -0.084329315 -0.060766306 -0.025253497 -0.08104614 -0.09050673 0.016867844
0.038428046 0.01592521 -0.02444998 0.01705468 0.063799754 -0.02151774 -0.036709636 0.015324245
0.0010610789 0.06569749 -0.06403421 -0.030149765 0.0398588 0.060471687 -0.016607666 -0.02561843
0.050044484 -0.0007811031 -0.034125023 -0.005339732 -0.010968794 0.01589473 0.03584635 0.0100622075
-0.07355299 -0.045683686 -0.0046161865 0.0814785 0.064129576 0.008898735 0.07762499 -0.053228356
0.041898537 -0.04417004 -0.034783866 0.051304977 -0.008908174 0.07591095 -0.014559547 -0.071302995
-0.082285985 0.051797245 -0.02250674 -0.080817886 0.06400863 0.03666651 0.012127278 0.005799121
0.054445636 0.039553452 -0.005146904 -0.033640843 -0.003082599 0.006211805 -0.08725331 -0.04087536
-0.02157391 -0.018980088 -0.009557463 -0.040521193 0.0023552522 -0.040746965 -0.033416912 -0.08929673
-0.09629715 -0.090163276 -0.0027424938 0.019317446 -0.011910604 0.019962924 0.0146038 0.042340126
-0.014903552 -0.057292495 -0.02612952 -0.010780159 0.08857847 0.027253345 -0.03343661 -0.07833188
-0.06420458 -0.038497783 -0.058597397 -0.0745956 -0.021848703 -0.10534907 -0.025848495 0.059497707
0.07467284 0.109932676 -0.03449836 -0.010110555 0.101015 -0.031257767 0.04239682 -0.06887849
-0.048060555 0.1409564 0.028155928 -0.007045156 -0.107102595 0.03747079 0.064560086 0.07382017
-0.039671812 -0.02917961 0.029488193 -0.03656267 0.06410428 0.072153054 -0.022856656 -0.050537206
0.000499296 0.0149024455 0.05386953 -0.019934572 -0.07255953 0.047860503 0.03190024 -0.039538287
0.07307465 0.012059206 -0.050901197 0.06447841 -0.042486805 0.07117891 -0.03731768 -0.009848146
-0.054135997 -0.025713772 -0.032328982 0.07820865 -0.04558626 -0.065405875 -0.06572513 -0.058668125
-0.05664169 -0.0010310804 -0.0068462724 -0.06453171 -0.056847617 -0.08411296 -0.08340392 0.06615806
-0.09288757 -0.0058376845 0.0058332114 -0.036464676 -0.05937056 0.025710525 -0.073703416 -0.0937716
-0.07028898 0.0021013739 0.04081947 -0.013458071 0.0004585037 -0.022693977 -0.07349721 0.07264539
-0.0643859 0.027164571 0.026444323 0.0027449427 0.07474015 -0.027309205 0.010973781 0.042701036
0.06739609 -0.057345133 0.060608555 -0.049905933 -0.026205286 -0.08641472 0.01844517 -0.00959714
-0.099680044 0.035555277 -0.06108953 0.06325801 0.03655281 -0.046154376 -0.013139133 -0.059485845

net.3.bias f4 [16]
00000000: 2a13 0cbd b793 8e3d 4bca 39bd c8ea ea3c
00000010: 5284 81bc 5349 15bc 9e33 683c 059d 5a3b
00000020: 7606 993d 8f3f 29bd 24f9 753d 3983 d0bc
00000030: d8c9 8cbd 4b09 8c3b 82d4 d03c f846 85bd
-0.034197964 0.06961768 -0.045358937 0.028676406 -0.015810166 -0.00911172 0.014172463 0.003335775
0.074719355 -0.04132038 0.060052052 -0.025453197 -0.06874436 0.0042735687 0.025491957 -0.06507677

net.7.weight f4 [120, 400]
00000000: 64c8 4b3d 9103 dbbc 4885 c13c f034 3c3d
00000010: a38e 23bc 4644 663c 2c01 24bb 1176 97bb
00000020: 251d 28bd 757d 2bbd 21ae d53b 6986 ab38
00000030: cf47 1f3d 9e69 32bc bbe1 423d d633 27bc
00000040: d1a3 1e3b 0e1a 8f3c df20 9c3a 6310 1d3c
00000050: f043 1c3c 648c 80bb 4e39 08bd 4c5d 46bd
00000060: f22c 793a ea53 b13c eb8a 14bd 7cb3 8dbc
00000070: 3a10 6abd 9917 ebbc 436e 68bd 32e3 a5bb
00000080: 8eb7 4b3d 927a a0bc e712 143d 9809 383c
00000090: 69cf 583d 4a74 bf3c 1fc6 3d3d 0595 ae3c
000000a0: 978b c1ba b41e 223d c7f9 f13c 270c a73c
000000b0: 947a 13bd b0e8 66bc 6deb 403c 00b2 083d
000000c0: f969 09bd ad11 bdbc 890c 2f3d c9d5 adbc
000000d0: 229e 5e39 10cb d73c c000 92bc 56a3 51bc
000000e0: 7538 8fbc 28d6 f33c 5809 c1bc f0df 183d
000000f0: 4dd2 c03c 7879 933c 7fa9 5d3b b336 5ebc
00000100: 876c 913c 6045 51bc 4cf9 aebc 3e94 33bb
00000110: adc9 763c 70e6 4bbc 8369 2ebd 9b62 70bd
00000120: 96c8 87bc 63c9 243d cec2 343d c40e 07bd
00000130: 7f91 07bd 4276 16bc 02b3 fd3c d971 2ebc
00000140: a8ca 673c 7cfb 223d 95c0 c03c fddb 133c
00000150: 2721 00bd 281b 843c 0fc4 65bc aec1 a63b
00000160: 3a4f 9c3c ac84 013b 7137 d73c b4bd a9bb
00000170: 1bcf 58bd 1de5 7abc 0628 ccbc 7790 05bd
00000180: 3c5c 08bd 2e63 263d 07b4 77bc 7da1 26bd
00000190: 587d 8f3c 1d79 1bbd c1a2 9e3d e12f f43b
000001a0: 44e6 8b3b 19e7 25bd c0c1 d83b 9df1 05bd
000001b0: ff39 283d cceb 343d 9a96 1cbd cf73 ddbb
000001c0: 4d24 41bd 9c6a 68bc d474 3f3b 960e 573d
000001d0: 2181 1a3b d129 953c d1a5 9e3b 819b 323d
000001e0: 50e2 5abc cb29 41bd 3cbb 0c3b c5b8 2ebd
000001f0: a434 253d 58c6 483d 7bd5 47bd acee 2abd
00000200: 091c 0fbc 4c39 0bbd b892 d83c 49c2 94bc
00000210: 386f 24bc 61ad 03bd 298f 36bd 11d1 ebbc
00000220: 0f66 84bd 8be9 73bc e393 56bd 24aa 423a
00000230: 211e 1abd 0342 64bd 700d 3abd 2ee0 693b
00000240: 60bd 1fbd b190 dd3c 5c7c 283d 639b 693c
00000250: 9f74 a23b 3764 96bc b991 2ebd 1f87 f5bc
00000260: 5cbe e33c 902b b53c a6c7 72ba b069 b83c
00000270: 05e7 5ebd e5ac 223d 3ba3 833c f90c 433d
00000280: a447 8ebd 697e 4b3c 16a2 edba 9e93 c9bc
00000290: 53b7 c0bc 1e83 2fbd 6d9f 2b3d 5e0a 44bd
000002a0: b733 2abb bdd7 4a3d 2e94 c73c b168 0f3b
000002b0: 377a ed3b 0e6f b63c f92e 243c 8a09 4e3d
000002c0: 1b9c 10bd 4ac7 1ebc 6d81 d4bc 76a3 073b
000002d0: 3482 0abc c0fb e1bc 7b4b 52bd 6018 c2bc
000002e0: 3ebf 013d e88c 4c3d 166a 903c 7146 20bd
000002f0: 4f03 16bd 334f 763a 3fb1 f1bc 8bf8 933c
00000300: 57cb 713b 66e3 963c 5326 edbc 04ea 3dbd
00000310: 7f1e 0dbd 43b4 823c 9427 bfbc 6b26 093d
00000320: 2fca 0d3d ef18 4dbd 1ea6 fcbc 3c9d 86bc
00000330: 940d 2fbd 1b01 673d e721 933b 4eaf 1f3d
00000340: 1ffc 9ebc da15 8f3c c829 45bc aab1 963c
00000350: 2b21 4fbd afb2 733c d717 023d e053 1dbd
00000360: e8cd 3abd 438e 1b3d 6c4a 0dbc c4f7 76bc
00000370: 4d6a 23bd 49c2 4a3c 2f50 823c 9a69 013d
00000380: 038d 5e3d 6191 77bc 2996 913c abf9 273b
00000390: e923 db3c 39b2 67bc 2e01 e23c fe9e 14bc
000003a0: 5e41 31bd b61d 12bd e719 00bd 3c45 9abc
000003b0: ee98 42bd 6ca9 e1bc 3665 5dba 2288 263c
000003c0: 1a17 f3bc c66e 4d3d c27d 9abb fbe9 fe3c
000003d0: 2927 993c c803 313c b419 803d fd11 db3b
000003e0: e39d 3cbc 8fb0 de3c 89b1 d4ba b61b 5fbd
000003f0: 7e98 7dbb 60d4 0dbd f5f3 1dbc 6089 26bc
0.049751654 -0.026735099 0.023623124 0.045948923 -0.009982738 0.014054364 -0.0025025113 -0.004622229
-0.04104342 -0.041867692 0.006521002 8.178951e-05 0.03888684 -0.010889439 0.047578555 -0.01020523
0.002420653 0.017468479 0.0011911652 0.009586426 0.009537682 -0.003922986 -0.033257775 -0.04842882
0.00095052936 0.021646459 -0.036265295 -0.017297499 -0.05714438 -0.028697776 -0.05674578 -0.005062484
0.0497356 -0.019589696 0.03615084 0.011232756 0.052932177 0.02337088 0.04633152 0.021311292
-0.0014766332 0.039580062 0.029538048 0.020391537 -0.03600557 -0.014093563 0.01177488 0.03337288
-0.03354833 -0.023079718 0.042736564 -0.021220105 0.00021230479 0.026341945 -0.017822623 -0.01279529
-0.017482975 0.029765204 -0.023564026 0.03732294 0.02353778 0.018002257 0.0033822951 -0.013562846
0.017751945 -0.012772888 -0.021359108 -0.0027401592 0.015062732 -0.012445077 -0.042581093 -0.058687788
-0.016575139 0.04023112 0.044131093 -0.032973066 -0.03309774 -0.009183468 0.030969147 -0.010647261
0.014147438 0.039790615 0.02352933 0.009024617 -0.031281617 0.01612623 -0.014023795 0.0050890064
0.019080747 0.0019762916 0.026271554 -0.005180085 -0.052931886 -0.015313414 -0.024921428 -0.032608476
-0.033291087 0.04062193 -0.015118605 -0.04068135 0.017515823 -0.0379573 0.077458866 0.0074519967
0.004269393 -0.040503595 0.0066148937 -0.032701124 0.041070934 0.044170186 -0.038229562 -0.00675819
-0.04715376 -0.014185574 0.0029213922 0.052504145 0.0023575502 0.018208416 0.004841544 0.04360533
-0.013359621 -0.047158998 0.0021473905 -0.04265668 0.040333405 0.04901728 -0.048787575 -0.04173152
-0.008734711 -0.03399019 0.026437148 -0.018159049 -0.010036282 -0.03214777 -0.044570122 -0.028786214
-0.06464779 -0.014887224 -0.05238713 0.00074258656 -0.03762639 -0.055727016 -0.04542297 0.00356866
-0.03899896 0.027046533 0.041134223 0.0142582385 0.00495775 -0.018358333 -0.04261944 -0.029971657
0.027800731 0.022115499 -0.00092613173 0.022511333 -0.054419536 0.039715666 0.016069045 0.047619794
-0.06947258 0.012420275 -0.001812997 -0.024606522 -0.023524916 -0.042849652 0.041900087 -0.04786145
-0.0025970766 0.04952215 0.02436265 0.002188247 0.007247235 0.022269752 0.010020965 0.050302066
-0.035305124 -0.009691069 -0.025940621 0.0020696796 -0.008453894 -0.027585864 -0.051341515 -0.023693264
0.031676523 0.049939066 0.01762871 -0.03912968 -0.03662425 0.0009395957 -0.029503463 0.01806285
0.0036894882 0.018418979 -0.028948938 -0.046365753 -0.03445291 0.015955096 -0.023334302 0.033483904
0.034616645 -0.050072607 -0.03084093 -0.016432397 -0.04273756 0.05639754 0.0044901255 0.038985543
-0.01940733 0.017466474 -0.012033887 0.018395264 -0.05056874 0.014874144 0.031761017 -0.038410068
-0.045606524 0.03797747 -0.008623701 -0.01507372 -0.0398963 0.012375423 0.015907375 0.03159485
0.054333698 -0.015110345 0.017771797 0.0025630991 0.026750522 -0.014141613 0.027588453 -0.00907111
-0.04327523 -0.035672866 -0.031274702 -0.018831842 -0.047509126 -0.027546607 -0.00084455626 0.0101642925
-0.029674102 0.05015447 -0.0047146985 0.03111743 0.01869543 0.010804124 0.062549025 0.006685494
-0.0115122525 0.0271838 -0.0016227226 -0.054469787 -0.0038695629 -0.034626365 -0.009640683 -0.010164589

net.7.bias f4 [120]
00000000: 096a 2fbd 4d4b 763c ac6c 143d 746d 023d
00000010: 36f0 3abb 4d0d ddbc 3493 34bd ca1f 1abd
00000020: 5314 d33c 6a60 423d 8609 86ba b409 0b3d
00000030: 1fcb e6bc 358c 213d 69ec 38bd f286 803c
00000040: 0a89 f3bc 271c 9fbc 0c81 2a3c a659 f2bc
00000050: e14d 0bbd 610b 133d 73ad dc3c eb9c 3ebd
00000060: 76be 4d3c 23a8 e1bc fa2f f4bc 53ae c63b
00000070: 2d4c 8b3b e415 52bc 8249 19bd 56d4 f0bb
00000080: 8daf 96bc fb9b d9bc a9fc 123d 6a45 dbbc
00000090: 883d 83bc d01b b1bc 6735 093d 5c91 05bd
000000a0: 58f4 c2bc 53c1 24bd 2b8f fc3c 9e96 e4bc
000000b0: 9c2b b4bc 94f2 143c 18b9 0d3d a219 3e3c
000000c0: 9236 40bc af55 27bd f3e1 b0bc 936a 283b
000000d0: e0bf 2c3d 5d75 c2bc 91b4 193d bed3 a4bb
000000e0: 2313 c23c 564e af39 9fde 1a3d c6f6 3dbc
000000f0: 2814 efbc 5d61 0c3d 5c5c ae3c 4386 e53c
00000100: ab44 29bd 4987 0b3d 3ccb 1a3d e204 143d
00000110: 4057 02bd c49a 57ba 9bd1 08bc 406a 2e3d
00000120: 843b be3b af0c 233d 0c68 70bc 5021 0e3d
00000130: 5014 2d3d b9cb 9cbc ce29 01bd 39c9 9ebb
00000140: c3e9 a83c b4dc 063d 1ae7 4bbc 8ff9 523c
00000150: b43f 8a3c 85ce 6b3c 7a9c 02bd bad9 33bd
00000160: 9ede 053d 611f 23bd c45a efbc 7bc5 f83b
00000170: 2a64 3e3d 4c2c b63c e560 bebb ee0d 253c
00000180: 283a 363d a107 4ebc 2279 2e3c e753 10bd
00000190: faff 1cbd 8e51 7c3b c098 f93c e5a6 f43c
000001a0: 97ad 52ba 5c36 7cbc 46ae 4a3d c44a 4bbd
000001b0: 7103 2abd 453b b2bc 8200 153b 8e11 b4ba
000001c0: 0d27 b63c 7a93 12bd 04c1 0a3d ee41 f43c
000001d0: 323d 823c 98be e13c 26cd 8fbc 98bc 0dbd
-0.042825732 0.015032602 0.03623645 0.031842664 -0.0028524525 -0.026983881 -0.044085696 -0.037627973
0.025766527 0.04745523 -0.0010226227 0.0339448 -0.028173028 0.039440352 -0.045147333 0.015689347
-0.029728431 -0.019422604 0.010406744 -0.029583763 -0.034009818 0.035899524 0.026938176 -0.046536367
0.012557616 -0.027545994 -0.029808033 0.0060632615 0.004251024 -0.012822602 -0.03742362 -0.007349531
-0.018394256 -0.026563635 0.035885487 -0.026766498 -0.016020551 -0.021619707 0.033498194 -0.03260933
-0.023798153 -0.04022343 0.030829987 -0.027903851 -0.02199345 0.009091038 0.034600347 0.011602791
-0.011731761 -0.0408532 -0.021592116 0.0025698289 0.042175174 -0.023737604 0.037525717 -0.0050301244
0.023690766 0.00033436966 0.037809964 -0.01159448 -0.029184416 0.03427254 0.021284275 0.028018123
-0.041325253 0.034064565 0.037791476 0.03613747 -0.03182149 -0.0008224661 -0.008350755 0.042581797
0.0058054347 0.039807018 -0.014673244 0.034699738 0.0422557 -0.019140111 -0.03153401 -0.004845765
0.020619279 0.032925323 -0.012445236 0.012876882 0.01687608 0.0143925 -0.03188751 -0.043908812
0.032683007 -0.039824847 -0.029218085 0.007591901 0.046482243 0.02223792 -0.0058098906 0.010074122
0.044489056 -0.012575061 0.0106489975 -0.035236266 -0.038330056 0.0038500759 0.030468345 0.029864738
-0.0008036731 -0.01539382 0.049482606 -0.04963185 -0.04150719 -0.021756778 0.0022735898 -0.0013738142
0.022235418 -0.035785176 0.03387548 0.029816594 0.01589832 0.027556702 -0.017553877 -0.034603685

net.9.weight f4 [84, 120]
00000000: 0fd7 bfbd 615f 893d 97b2 6cbd 03e8 cabd
00000010: 1638 333d 8595 0abd 20d8 33bd f9f5 623d
00000020: fca3 463d 3ed7 673c 6034 07bd adf5 ab3d
00000030: f632 f83c 550f 2c3d c3cd 51bd 4430 2c3d
00000040: b66d f4ba 3f48 8bbc 3617 b13c cfdf aebd
00000050: c20e 2dbd 6209 c3bd 224d 123a 0955 96bd
00000060: f76d 14bd 2685 3dbd 7088 a13d a376 cebd
00000070: 0339 a2bd 1b0f babd 7507 13bc 14c8 713d
00000080: 363a 01bd 2298 95bc 000b 56bd 8b8b 9ebd
00000090: 176a 02bd 481f aebd 3c41 b23b 2eeb 30bd
000000a0: 0600 19bd 364e 393b d0c7 a33c 63ae 3f3d
000000b0: aebc a53d db17 07be 8d3d 7c3d 0bef 1e3d
000000c0: 504e a4bd a4de c93d 6e7c cbbd 081b 9d3d
000000d0: d67e 0dbc 5ade b5bd 979f ed3c 09ae 733d
000000e0: 0f5e 16bd 6bdf 5dbd 7d25 3f3c 7ce5 8b3d
000000f0: 4e96 3f3d 8351 30ba cb8d 6c3d 2373 4bbd
00000100: d2f4 4c3b 8724 893c 5abf 323c 2406 8ebd
00000110: 6dbc 8fbd 2af1 603d 192e 04bd 4a09 3fbc
00000120: c8b3 383d 2aeb 733d 248f f63d 79fd 2e3d
00000130: 9ff8 abbd 288e 14bb 316a a33d 26d5 a7bd
00000140: 1e37 f2bb f94a 94bd 64bc 15bd 05cd f33b
00000150: 2551 9c3b 9e88 933c 47df 10bb cdec 1f3c
00000160: 21cf 8c3c d106 793d ed40 0c3d fa32 3f3d
00000170: dfc5 8e3d 3988 0ebd b242 c83c 60ff 7a3b
00000180: a4e7 543d 34a1 14ba c162 553c 117a 543d
00000190: de8d 93bd 5167 983d 339e 84bd 7d98 3ebd
000001a0: d19b 9c3d 9e73 a83c 6bde febb a1e2 72bd
000001b0: ea2c c53d c07f e0bc 65f0 b83c edc6 28bd
000001c0: e272 03bd 587c 753d 087b 7fbc 9049 563d
000001d0: e1ac a03d 36b2 be3d 7e1b eb3c 0175 fd3b
000001e0: 0fe1 d2bc 652b 303c 500d a53d 2d60 cc3c
000001f0: be10 543d ba73 763d 4ba2 673d 63e6 68bd
00000200: 8c80 13bd 1e88 74bd c0c0 bfbd 3129 7f3d
00000210: 1b97 efbc ab2c 69bc 87f8 7ebd c870 13bd
00000220: 12cf 1e3d 3eb5 1c3d c2a3 933d 393d 95bd
00000230: b761 c53d a461 b3bb 2dab 70ba e05f 8ebd
00000240: 5696 163d 6589 123d f1df b33d 85c7 bb3d
00000250: 245c 873d 4c05 663d c260 8abd 902d 113c
00000260: 97e7 04bd 0210 babd 4ff9 44bc 399c e0bc
00000270: 4a8e 8b3d 135b 62bd 42bf bd3c c580 873d
00000280: 50a9 a43d 7a97 5a3d c905 8fbd 2ba8 403b
00000290: 273b a4bd bf00 583d c624 973d ed9a c93c
000002a0: 00e7 96bd 2857 8c3d c197 fdbb fd4e 363c
000002b0: f5f8 4439 8dbc 0e3d 68f9 d23b cb2c a43c
000002c0: 1851 0fbd 7637 26bd 3950 a0bd baf5 4b3d
000002d0: 4c41 a13d bcbd af3d 943b c23c 38e8 a23d
000002e0: cd79 e13c 3d17 3a3d ba5e c8bc 7606 a8bd
000002f0: a4a6 a93d 0e28 ae3d 64f7 f53c 018e 6cbd
00000300: 2af5 9fbc 852f eebd 725b b2bd 86c4 b8bd
00000310: 1f3c a1bd 868a 85bd 0350 9e3d b368 473c
00000320: a0a6 b3bd 335b 61bc c5b6 9bbd 4253 843d
00000330: 3bf6 8bbc be63 9c3c 29f0 77bd dd1d 11bc
00000340: 6802 a93d c244 89bd b202 453d fd3b 2d3d
00000350: f3d1 14bd fccb df3c 1368 10bd 5fd3 9dbc
00000360: 01d7 3fbc 5b3e 8e3d 586a 08bd fee5 c33d
00000370: db0d 0f3c 1972 923d c261 a4bc 5913 973d
00000380: 59b1 683d 0737 d3bc bb48 a8bd df17 e8bb
00000390: 686f 753c 056c a83c 053a 0ebc c752 94bd
000003a0: 88ce 0cbd 3376 a3bd 89d7 723d 3cc0 8f3d
000003b0: 7f62 b53d 47c5 adbd 6610 bbbd 0aa4 353d
000003c0: 49da afbd b620 153d b59a 1a3d 1974 92bd
000003d0: 28bb 363d 5eaf 99bc e7d7 ff39 db01 3fbd
000003e0: a6c0 6a3d 30c3 8ebd d878 88bd d1bd 1fbd
000003f0: 08cc cabd d6e7 4b3d 04f3 b9bd b7f9 58bd
-0.09367191 0.06707645 -0.057787504 -0.09907534 0.04375466 -0.033834 -0.043907285 0.05541036
0.04849623 0.014150439 -0.033008933 0.08396468 0.030297738 0.04200681 -0.05122162 0.042038217
-0.0018648419 -0.017002223 0.021617513 -0.08538782 -0.042250402 -0.09523274 0.00055809517 -0.07340438
-0.036237683 -0.04626956 0.078873515 -0.10081222 -0.0792103 -0.090849124 -0.008973946 0.0590287
-0.031549655 -0.01826102 -0.052256584 -0.077414595 -0.031839456 -0.0850206 0.0054399054 -0.043193035
-0.037353538 0.0028275377 0.019992739 0.046797168 0.080926284 -0.13192694 0.061582137 0.038802188
-0.080227494 0.098569185 -0.099358425 0.076711714 -0.008636197 -0.08880301 0.029006762 0.059492145
-0.036710795 -0.054168146 0.011666653 0.0683088 0.0467742 -0.00067260134 0.05775241 -0.04967035
0.0031273854 0.01674105 0.01090988 -0.06934765 -0.07018361 0.054917492 -0.032270525 -0.0116599295
0.045093328 0.05955044 0.12039021 0.0427222 -0.0839703 -0.002266774 0.07979239 -0.08194952
-0.0073918244 -0.072408624 -0.036556616 0.0074402117 0.0047704154 0.01800948 -0.002210574 0.009761048
0.01718861 0.060797516 0.034241606 0.046679474 0.06971335 -0.03479788 0.024445865 0.0038299188
0.051978722 -0.0005669773 0.013024033 0.051874224 -0.072047934 0.07441581 -0.064754866 -0.046532143
0.07646907 0.020562943 -0.007777979 -0.05929816 0.09627707 -0.027404666 0.022575567 -0.041205335
-0.032091983 0.059933037 -0.015593298 0.05231625 0.07845474 0.09311335 0.028699633 0.007734895
-0.025742082 0.010752534 0.0805918 0.024948204 0.05177378 0.06016896 0.05655126 -0.05686034
-0.036011264 -0.059700124 -0.09362936 0.062295143 -0.029246857 -0.014231841 -0.062248733 -0.03599623
0.038771696 0.038258784 0.07208969 -0.07287068 0.09637778 -0.005474286 -0.00091807806 -0.069518805
0.036764465 0.03577556 0.08782948 0.09168915 0.06609371 0.056157395 -0.06756736 0.008860961
-0.032447424 -0.090850845 -0.01202233 -0.027418243 0.06814249 -0.055262636 0.023162488 0.06616358
0.08040106 0.053367116 -0.06983525 0.002939711 -0.08019095 0.052735087 0.07380061 0.024610007
-0.073682785 0.06852561 -0.0077390377 0.011127231 0.0001878476 0.034847785 0.006438423 0.02004089
-0.034989446 -0.040580235 -0.07827801 0.04979489 0.078737825 0.08581111 0.02371005 0.079544485
0.0275239 0.045432318 -0.024459232 -0.08204357 0.08283737 0.085037336 0.030025192 -0.057752613
-0.019526083 -0.116301574 -0.08708848 -0.09021859 -0.07872795 -0.06520562 0.07730105 0.012170958
-0.087720156 -0.013754654 -0.0760322 0.06461193 -0.017085185 0.01909053 -0.06053177 -0.008857218
0.08252412 -0.06702568 0.048098274 0.042293537 -0.036333036 0.027318947 -0.035255503 -0.019265829
-0.011708976 0.06945487 -0.033304542 0.09565352 0.008731331 0.07150669 -0.020066146 0.07376737
0.056809757 -0.025783075 -0.08216997 -0.007082924 0.014980175 0.02055932 -0.008680825 -0.07242351
-0.03437665 -0.07981529 0.05928758 0.07019088 0.08856677 -0.08484893 -0.09133987 0.044345893
-0.085865565 0.03640815 0.037745196 -0.0715105 0.04461208 -0.01876038 0.0004879825 -0.04663263
0.05731263 -0.06970823 -0.06663674 -0.038999382 -0.09902197 0.049781643 -0.09079555 -0.05297252

net.9.bias f4 [84]
00000000: 798e 9fbd 66ac bc3b c0e4 7ebd 35a7 ad3d
00000010: 87a1 da3c 0820 493d 347f f33b 391c 6dbd
00000020: df55 883a b510 86bd fdf6 7d3d 9873 2ebc
00000030: 1081 873d b2d8 b33c 77dc b0bd cd0f 95bc
00000040: 152e e73c f968 18bd 1a2a 983d 8a19 45bd
00000050: 65ea 60bb bfe6 34bd 8e18 f13c 11d5 8c3c
00000060: c19b 913d 9671 83bd c4b0 7d3d 7048 053c
00000070: 623c 9f3c d5bb 553d d184 0c3d 2e6f 66bd
00000080: 1fb0 253d 69ec 9a3d 48af 2ebd 1a0d 59bd
00000090: 3a56 543c 2f59 a7bd 8e1f 443d 6ec3 b0bd
000000a0: 9875 9cbc b9bf 473d f29d d13c a8f8 973c
000000b0: dd25 703d 111d 45bd cad5 693d a5d8 86bd
000000c0: a39b 96bd cbe4 d23c c47c 383c 547d abbc
000000d0: d1e5 acbd 1b2b 86bd 6799 96bd 8f04 58bd
000000e0: 0cbd 0b3d 981d 213d 98d5 6d3d f4df 39bd
000000f0: f086 773d 53e2 993d d1b4 403d 2ba0 6cbd
00000100: 9713 953d 8b64 abbd 6f42 4cbc c07f 913d
00000110: 72f1 bd3c 05c6 763d a0fd 71bd 7acd 4dbd
00000120: ca72 693d 7620 72bb cdec afbd fc5f 2f3d
00000130: 7608 a33d 4b7b 84bd f4bc b83d 6fd3 9bbd
00000140: 63ed 51bc bb8b 993d ef8c d53c 6106 52bd
-0.077908464 0.005757856 -0.06222987 0.08479158 0.02668835 0.049102813 0.0074309353 -0.057888243
0.0010401568 -0.06546155 0.062003125 -0.010647677 0.066164136 0.021953914 -0.086358 -0.018196011
0.028220216 -0.037209485 0.07429905 -0.04812006 -0.0034319398 -0.04416537 0.029430654 0.017191442
0.07109786 -0.06418149 0.061936155 0.008134946 0.019437972 0.052181084 0.03430635 -0.056258373
0.040451165 0.07564623 -0.04264763 -0.05299101 0.012960011 -0.08171307 0.047881655 -0.08631025
-0.019099042 0.048766825 0.02558801 0.018551186 0.05862986 -0.048123423 0.05708865 -0.065842904
-0.07353904 0.025743863 0.011260215 -0.020933785 -0.084422715 -0.065511905 -0.07353478 -0.052738722
0.034115836 0.039334863 0.058065027 -0.045379594 0.06043142 0.07513871 0.04704744 -0.057769936
0.07279127 -0.083687864 -0.012467011 0.071044445 0.02318642 0.06024744 -0.059079766 -0.050244786
0.056994237 -0.0036945618 -0.08590088 0.042816147 0.07960598 -0.06468829 0.09020415 -0.07608687
-0.012812945 0.074973546 0.026068179 -0.051275615

net.11.weight f4 [10, 84]
00000000: 5043 aa3d d660 2b3d 01ef d0bd e028 b9bd
00000010: 12bb 003d 9235 adbc de57 2d3e 743c 10be
00000020: f21e 8d3d bdc2 5f3d 5ba2 04be 334f 6cbb
00000030: 1aa2 1dbd 5392 99bd c92b 98bd dcc9 493d
00000040: 23c7 3abc 73ca 7c3d 6ab6 313d 80be 0b3b
00000050: a7ea 293d 51a0 57bd d68e fcbd a87f d4bb
00000060: 421e c3bd 92a3 1fbe 28e1 9f3d 2fda 523d
00000070: 8566 e93d 6cc8 f1bd 7d7a 8dbd 8a46 823d
00000080: 60e9 4abd 191f e9bd ec04 a23d 58a8 b63d
00000090: 8027 133b b091 f23d f071 35bc 66a2 b4bc
000000a0: a451 88bd 7e57 8cbb b00f bdbd 11b2 9a3d
000000b0: c217 1e3e 1037 a1bd 3239 37bd f9b6 833c
000000c0: f9ca b83c 002c a4bd 8330 f13a 9bcd 94bd
000000d0: 6f4b 9b3d a78e 15be 31ce 4c3e 53f4 0abe
000000e0: 58cb a2bd 44c8 e0bd 5d89 01be 2641 00bd
000000f0: fa0a c33d b2dc c83d e4c9 16be c053 4cbe
00000100: 4b1c 263e e97d dfbd 706c 8b3d ac39 01bd
00000110: b03e 383d bb03 1fbb f9c0 303d eb41 13bd
00000120: 12bf 82bc dd69 6dbd e580 19be 6ef0 f53c
00000130: 649f 943d f1df edbc 7ad7 e53d 2f63 073d
00000140: a0ea 3dbc cd67 bf3d bf05 843d 1b4d 89bd
00000150: c461 14be 232b a8bb 2567 bbbb b510 e6bd
00000160: 1591 563d e94c 27bd fdbb dfbd 00ec cabd
00000170: d3a8 843d bb3b 51bd b54c 98bd d358 2d3d
00000180: 1d2a 15be a896 033d 83af c7bd 87ca e03c
00000190: b25c 09bd 19f5 a63d 2057 003d 2d50 5c3d
000001a0: d958 c0bd 640c 9dbd 6566 5e3b 623f 4e3d
000001b0: 45e1 d1bd f0ff 243e 82d0 93bd e496 403d
000001c0: d985 2f3d 0143 c13c bd43 bb37 c86f 9e3d
000001d0: 12f6 193d 2dea 89bd 1443 a6bd 9879 bcbc
000001e0: 6b1d be3d fc91 b4bc 5d80 cd3c 8cbb f33c
000001f0: 593e 103e 9418 c43c c66c 903c b43b 69bd
00000200: 157b e4bd fba4 c63c 98d4 233e d93f 523d
00000210: b865 10be 1306 a1bd 7ab0 963d 3d30 e2bd
00000220: 190e 113e 12c2 123d 3a6f 8f3d edab a8bd
00000230: 43e0 963d c126 d5bd fd18 34bd 0d4f abbd
00000240: 6f8f 133c 36e3 fa3d a226 5c3d 4ae5 d1bd
00000250: f3fc 00be 4494 6f3d cbab 003e bd76 ddbd
00000260: ae1b 353d 22bc a83d 93da ccbd 619a 10be
00000270: a887 8ab9 1b67 153e c59e 393d a9e6 b1bd
00000280: aa7a 393e d422 24bd f8e8 1bbd 1eec e5bd
00000290: e939 063d 68c1 60bc dab6 b23d 1801 f33d
000002a0: d118 1ebd 3147 103e fb37 1dbe c44c 77bd
000002b0: 5a9c 5dbd 225d 973d bb63 893c 2f90 1abd
000002c0: 8a62 82bd eda8 48bd c5fc af3c 85fc b6bd
000002d0: 3f9e 883d d21e 2f3c 4925 33bd 0bbe 593d
000002e0: 217b dc3d f54e 0d3d 60c2 563d f803 e5bd
000002f0: 71f7 063d f01f 953d c1ea 133a 57aa a43d
00000300: 133b d2bd 0ba5 10be 5a2d 323e c33a eebd
00000310: 0abd f5bd 9157 fc3d 3b74 993d 3e8a 0d3e
00000320: 0273 3cbe 671a 81bd bff3 04bd c159 0d3e
00000330: c928 13be 8f03 d63d 088b 61bd c150 39bd
00000340: c82f 1fbe 2a7e 67bc effb 853c 8648 923d
00000350: 6d1c 12be 55c6 11be aa86 3b3e fb8b 0dbe
00000360: b64d c43d 3283 debc 7d08 96bd 3a59 563d
00000370: fd85 ebbc b8fd 2b3e 0ab3 10be 0498 cc3d
00000380: 5f01 27bd e125 12bd f955 a3bc 0b01 e93c
00000390: 0811 df3d 1f5d 333d 5f99 e53d 08b0 363b
000003a0: b0c8 d93d 5cb2 0f3d 035a 56bd be8c 15bd
000003b0: b834 3a3b e08a 7d3d a1cc ff3d f629 753b
000003c0: 5c69 513d 16d9 5a3d 9289 15bd 6de8 3ebd
000003d0: 3b3f 7cbd 6f9c c1bd a259 30bd 32df a83c
000003e0: e8a1 4b3d ffa7 1abd 9c2b e7bc 691b 2cbd
000003f0: 2ed2 a63b 24d4 913d a85b b73d 5b0d 653d
0.0831362 0.041840397 -0.102018364 -0.090409994 0.031428404 -0.021143708 0.1692805 -0.14085561
0.06890668 0.054629076 -0.12952559 -0.0036057949 -0.03848467 -0.07498612 -0.07430226 0.049264774
-0.011400017 0.061716508 0.043386854 0.0021323264 0.041483548 -0.052643124 -0.12331931 -0.0064849444
-0.095272556 -0.15589741 0.07806617 0.051477607 0.11396507 -0.118058056 -0.069081284 0.063611105
-0.04953897 -0.113828845 0.07911095 0.08918828 0.0022453964 0.11844194 -0.011074528 -0.022050094
-0.06656197 -0.004282891 -0.09231508 0.07553495 0.1543875 -0.078718305 -0.04473228 0.01607846
0.022557722 -0.08016205 0.0018401298 -0.07265779 0.07582747 -0.14605199 0.20000531 -0.13569765
-0.07948941 -0.10975698 -0.12650056 -0.03131213 0.09523578 0.09807719 -0.14725453 -0.19953823
0.1622173 -0.10912687 0.06807792 -0.03154914 0.04498166 -0.0024263698 0.043152783 -0.035951536
-0.01596025 -0.057962287 -0.14990576 0.030021872 0.07256964 -0.029037448 0.112227395 0.033053573
-0.0115915835 0.0934597 0.064464085 -0.0670416 -0.1449042 -0.0051320954 -0.005719083 -0.11233655
0.052384455 -0.04084483 -0.10924528 -0.09908295 0.06477513 -0.051082354 -0.07436506 0.042321038
-0.14566846 0.0321261 -0.09750273 0.027440323 -0.033535667 0.081522174 0.03133309 0.0537874
-0.09391946 -0.07668379 0.0033935544 0.050353415 -0.10248045 0.16113257 -0.07217504 0.0470189
0.042852256 0.02359152 2.232368e-05 0.07736164 0.037588187 -0.067341186 -0.08118263 -0.0230072
0.09282955 -0.022042267 0.025085622 0.029752515 0.14086284 0.023937501 0.017629992 -0.056941703
-0.111562885 0.02424859 0.15999067 0.05133042 -0.14101303 -0.07862487 0.07357879 -0.11044357
0.14165534 0.03582961 0.07003637 -0.08235917 0.07366993 -0.10407782 -0.043969143 -0.08364687
0.009006365 0.12250368 0.05374778 -0.102488115 -0.12596492 0.058491006 0.12565534 -0.10813663
0.04421585 0.082390085 -0.10002627 -0.14121391 -0.00026422483 0.14590113 0.04531743 -0.08686573
0.18113199 -0.040072277 -0.038063973 -0.112266764 0.03277007 -0.013717987 0.087262824 0.11865443
-0.038597886 0.14089657 -0.15353386 -0.060375944 -0.054104187 0.073908105 0.016771188 -0.03773516
-0.06366451 -0.048989225 0.021482835 -0.08934883 0.06670808 0.0106885005 -0.04373673 0.053159755
0.107656725 0.034499127 0.052431464 -0.111823976 0.032950822 0.07281482 0.0005642586 0.08040302
-0.10265174 -0.14125459 0.17400113 -0.11632302 -0.11998947 0.123213895 0.07492872 0.13822266
-0.18403247 -0.06303864 -0.032459017 0.1380377 -0.14371027 0.104498975 -0.05506423 -0.04524303
-0.15545571 -0.014129201 0.016355483 0.07142739 -0.14268656 -0.14235814 0.18313089 -0.1382293
0.09585135 -0.027162168 -0.07325838 0.052331187 -0.028750414 0.16796005 -0.14130798 0.09989932
-0.040772792 -0.035680655 -0.019938456 0.02844288 0.1089192 0.04378998 0.11210894 0.002787592
0.10633981 0.035082206 -0.052331936 -0.036511175 0.002841277 0.06190002 0.12490202 0.0037409044
0.05112587 0.053429686 -0.03650815 -0.046608377 -0.06158374 -0.094536655 -0.04305423 0.02061424
0.049714953 -0.03775787 -0.028219037 -0.042018328 0.0050909733 0.07120541 0.08953029 0.05592094

net.11.bias f4 [10]
00000000: 3810 e7bd c2f7 b7bd 502d 23bd ba5d 993c
00000010: 8b68 763d b5bd 34bd be00 b6bd 8cee 633c
00000020: ccbf 283d 2383 823d
-0.1128239 -0.08982803 -0.039838135 0.01872145 0.060158294 -0.04412623 -0.0888686 0.0139118545
0.041198537 0.063726686
