Digit-Recognize/LeNet.bin (torch, 252423 bytes, 10 tensors)

weight f4 [6, 1, 5, 5]
00000000: 8561 b4bd ba64 393d d77b 37be 7ca0 da3d
00000010: 9ec1 0ebe cc2e 05be dc0b 37be 5fba a93c
00000020: 2dd5 44bc 2fa5 ceba fd83 42be ab84 0fbd
00000030: 34e8 48bd 58f6 f53c 4a60 f8bd 7052 893d
00000040: 3c9e 8c3e bfe7 9d3d 8aab 413d 460b c8bd
00000050: 0e29 e33e 5d9a 4d3e 46a5 6e3d 0d5b 3d3e
00000060: bc8a 833e 98aa 2c3e 52fd 843d 746d 1ebe
00000070: bd86 87bd d411 b4bd 145f 27bd e2c6 a1bc
00000080: 8133 bdbd 865d 3bbe 6b91 f03d 4cd5 7fbc
00000090: 63ad 543e 21c7 01bf 2a2e 30be d99d 3a3e
000000a0: d809 313e 27be 03be 59b1 ffbe b47b 763e
000000b0: de77 fc3d b805 aabd 7542 8cbe 51a3 5bbd
000000c0: 5c5b 50be 31b1 9a3d 21cf 09be 4c35 f33d
000000d0: 90af 9a3e db43 243e f5df 9c3e f2e6 1abd
000000e0: e584 21be bd0a dabd 1c81 853c ab8b 2f3e
000000f0: 31d1 33be 65c6 7cbe 2a56 a1bd 0cd5 da3d
00000100: e03b ec3d cef5 ffbd 4f54 dbbd fdb8 b3bd
00000110: 2715 ea3d 6dd6 8a3d 9f65 d8bd 59b6 3dbe
00000120: 240d 5dbd a277 e4bb 8c93 063d 88eb 033f
00000130: d490 12bd c03d 533d cc96 883e 9e0c bf3e
00000140: 53fc 913e 4739 a13d c450 713e e85b 56be
00000150: 1812 993e 7948 e13e df35 d7bd 7ecf 05bd
00000160: 63b3 8fbd 6df6 133e eaec 563e 2238 28be
00000170: 5fd9 8bbc cf48 80bb f99c 923d fb23 853e
00000180: b824 9cb9 1d53 8338 0f86 70bd b711 bc3d
00000190: 3bf1 683e b806 d23c d419 eebc 59f8 6dbc
000001a0: 7761 e93c eea3 c63d b486 ed3b c9a8 2bbe
000001b0: e87e b33c cb24 c53d 0a5a b63d 6324 c0bd
000001c0: e89b 7cbc dcb2 383e 2868 903d b0ee 973c
000001d0: fdd9 4ebc 89f6 6b3e 2c82 283d 84bc d63d
000001e0: 7dc6 4dbe ee79 b4be 22bf 59be b1bd 35be
000001f0: b2c6 fbbe 373d c13e 7238 fbbb fdfd 983d
00000200: 4e66 e63d 5e6e 20bd a76e 3abd 365a 04be
00000210: bfef bb3d 530c 50bd 25c1 05be c245 1bbe
00000220: 5091 693d 0bd6 2abe dee1 8dbe cb81 8cbd
00000230: eefe 06be d21d 6fbe e498 9ebe 7db1 8dbc
00000240: f404 cf3d 0585 4b3e 50bc febd 0c8b 173e
00000250: 33cf 2a3e 9a5f 69bd
-0.08807663 0.045262076 -0.17918335 0.10675141 -0.13941047 -0.13006133 -0.17875618 0.020718751
-0.012013716 -0.0015765781 -0.18995662 -0.03503863 -0.04904957 0.030024692 -0.12127741 0.06705177
0.27464473 0.07710218 0.047282733 -0.09767775 0.4436726 0.20078416 0.058263086 0.18491764
0.25691783 0.16861951 0.064936295 -0.1547144 -0.06617496 -0.08792463 -0.040862158 -0.019748155
-0.09238339 -0.18297395 0.11746486 -0.015614819 0.20769267 -0.5069447 -0.1720511 0.18224277
0.17288911 -0.12865506 -0.49939993 0.24070626 0.1232755 -0.08301872 -0.27394453 -0.053622548
-0.20347351 0.07553328 -0.1345792 0.118754 0.3021207 0.1604151 0.30639616 -0.037817903
-0.15773351 -0.106465794 0.016296916 0.17143123 -0.17560269 -0.24685057 -0.078777626 0.10685167
0.11534858 -0.124980554 -0.1070944 -0.08775518 0.11429816 0.0677918 -0.10566258 -0.18526591
-0.05396761 -0.006972269 0.032855555 0.5153127 -0.03578265 0.05157256 0.2667755 0.37314314
0.2851282 0.07872253 0.23565966 -0.20933497 0.29896617 0.44000605 -0.10508322 -0.032668583
-0.07016637 0.14449473 0.20988813 -0.16427663 -0.017071424 -0.0039149295 0.071588464 0.26004013
-0.00029781996 6.262048e-05 -0.0587216 0.09183066 0.22748272 0.02563797 -0.02906505 -0.014524543
0.028488858 0.09699236 0.007248724 -0.16763605 0.0219111 0.09626158 0.08903892 -0.0938194
-0.01541803 0.1803698 0.07051116 0.018546432 -0.012625215 0.23043264 0.041139767 0.10485175
-0.20095249 -0.35249275 -0.21264318 -0.17748143 -0.4917503 0.37742016 -0.007666641 0.074703194
0.11249982 -0.039167754 -0.045515683 -0.12925038 0.09176587 -0.050793003 -0.1306196 -0.15163329
0.057023346 -0.16683213 -0.27711385 -0.068606935 -0.13183185 -0.2335122 -0.3097602 -0.017296547
0.101083666 0.19874962 -0.124382615 0.14799136 0.16680603 -0.05697594

bias f4 [6]
00000000: 813f 0bbd cfe1 483e e94f 8dbe 6ebd 01be
00000010: 37d7 8dbc 43ac 7bbe
-0.03399611 0.19617389 -0.2760003 -0.12669918 -0.017314536 -0.24577431

weight f4 [16, 6, 5, 5]
00000000: 17cf d5bc b6ce 96bd 2320 193e 3dbd 133e
00000010: cbe9 df3d b635 07be 17af 2dbe a993 c3bd
00000020: e492 2e3d 6627 003d a262 86be 757a acbe
00000030: 29e8 b6be 8273 02be 8d10 d9bd 73a5 06be
00000040: 6ef5 13be 1277 7ebe 8885 65be 619b e0bd
00000050: 709e 0e3e 5fa8 433e f0da 063e d6b4 06bd
00000060: 0ab7 14bd 1396 003d 1da8 9dbd 0c6a b4bc
00000070: dfb1 123e 7209 5a3e f053 8dbe d3df 45bf
00000080: 56f8 4ebf 6fe6 35bf 093c f4be 7bd4 ddbe
00000090: f4d2 39bf e9d1 6abf 674c 5cbf a8b9 15bf
000000a0: 05f4 84be 41fd b0be 7d39 d2be 19eb febe
000000b0: e883 babe 8916 27be 0f35 1dbe df84 06be
000000c0: 0881 f8bd 8cc0 063d ffc4 8bbe 70ca 7ebe
000000d0: a767 c3be 48e0 b5be 2083 21be 3398 68be
000000e0: deb5 99be 3d6b babe 360a f8be 8689 cfbe
000000f0: cba8 81bd 307e 933d e46e 8b3d 7239 c4bd
00000100: 2ffd 76be b3ce bc3c 85a1 433e fbed 833e
00000110: 854e 2d3e 3931 9fbb 36bd ec3d 2c40 663e
00000120: bd95 e53e 33e3 a73e 8e9f 103e d955 853d
00000130: 07f3 d33d a919 843d 7dd3 08bd 30fc 0abd
00000140: 1729 c53d 4030 0c3e 7b8f 233e 8bb0 b13d
00000150: 023c 2a3e c716 773d 59b0 863d e5df 6f3e
00000160: f11e 1c3e 2c36 f23d 8f19 4f3d 096e 703d
00000170: f717 bfbb 6a24 bb3d d946 773d 2eba 17bd
00000180: 0492 ab3d 9c18 833d b9d7 60bd 39f0 8cbd
00000190: e5d2 3e3e be22 8b3e 37b7 e73d ab15 683e
000001a0: 62ad 023e 00e9 a43e 2ded bd3e c4fa 763e
000001b0: d238 2f3e 3dce 093c a1ab 953e 3c97 bc3e
000001c0: 7d2f ad3e 9142 fb3d 2780 b23d eedb 8c3d
000001d0: 36ba aa3d 11c2 4b3e 2548 333d 6885 903d
000001e0: a9a4 9cbe 2e7b 3fbe 3968 12be 6e0e a2bd
000001f0: 9d9e 93bc 289c 893d 83da ea3d 562f cd3d
00000200: 32aa bc3d 9c98 213e a86c e8bd 06fd cdbe
00000210: f67f c2be 5577 ccbe 97c3 23be 5756 d73d
00000220: aaf2 883d 3aeb b43c 42c7 39be 6e0e 2abe
00000230: e3a5 a93d b35b d83d 2990 083d 6544 1dbe
00000240: af85 83bd a211 193e 72a5 a13e 5ca8 6d3e
00000250: ea90 0c3e 4ca0 083e 58f6 05bf 6978 59bf
00000260: 11cf 4bbf d5ad 96be 64ff 673e 07bd 21bf
00000270: cf22 23bf cdb5 cfbe 33ae 4d3e e680 123f
00000280: 7782 07bf 8aa9 b1be 953f 203e 1627 1b3f
00000290: 4226 2c3f 4a26 93be d916 29bd cfc3 133f
000002a0: 44ae 263f a987 363e d58e 983e 490b 9e3e
000002b0: 924b ec3e 7de7 acbd 1075 21be 290c b43e
000002c0: 9a90 cabe 8909 edbe 2323 fbbe a641 b6be
000002d0: eeeb 81be 0e74 05bf aee2 2fbf 111c fbbe
000002e0: 5f87 1ebe 10b5 33bf a760 ffbe 88a7 debe
000002f0: 1caa 9cbd 5100 313e cc64 0fbf b7d0 8abe
00000300: 658e c5be 5ade 26bd 27d9 003e e0fa 64be
00000310: dc43 70be d4f1 68be 0e94 9d3e f234 f6bd
00000320: b5d7 283e b675 86bc 27ff b6bd 67ce be3d
00000330: 364f de3e c548 05be 4767 20bb 904f 22bd
00000340: bec3 b33e fa19 193f 4ca7 95be 790b b43d
00000350: 629f 123f 84f0 783e 904b 8c3e dedf 31be
00000360: 1fc6 ea3e a79d 0f3f 3b80 933c 4105 033e
00000370: bc54 3fbe bdc6 8f3e a2d7 423e 7214 483d
00000380: 2c9e 0d3e d1ae abbc f2bf e6bd 8ce3 04bd
00000390: 20ea a53d 931a 24bd 8a16 42be f374 87be
000003a0: 0fb4 3fbd 8abb b4bc 26c1 2f3d cafb 54be
000003b0: d4d0 13be 6fc6 34bd 1924 783d d21f 053e
000003c0: 1d21 f33c 2077 2d3b 5993 193d a168 3c3e
000003d0: 3cb0 9a3e 0fcd 293d f51e 223e 350e 333e
000003e0: e531 523e f4bd 3d3e ca7f be3e 2b9d c03e
000003f0: d9cc 7c3e 23b7 bfbd ee09 6cbe 8efa e13e
-0.026099725 -0.07363646 0.14953665 0.14427657 0.10933264 -0.13204083 -0.16961323 -0.09549648
0.042620555 0.031287573 -0.26247126 -0.33687177 -0.35724 -0.12739375 -0.1059886 -0.13149051
-0.14449093 -0.24850109 -0.2241422 -0.10967136 0.13927627 0.19107197 0.13169456 -0.032887302
-0.036307372 0.031393122 -0.07698081 -0.022023223 0.14325665 0.21292666 -0.27603102 -0.77294654
-0.8084768 -0.7105474 -0.47702053 -0.43326172 -0.72587514 -0.9172655 -0.8605408 -0.58486414
-0.25967422 -0.34568217 -0.41059485 -0.4978874 -0.3642876 -0.1631719 -0.15352271 -0.13136624
-0.12133986 0.03289847 -0.27298734 -0.24881911 -0.38165018 -0.35522676 -0.15772676 -0.2271431
-0.30021566 -0.3640994 -0.4844529 -0.4053461 -0.06331023 0.07201803 0.0680826 -0.09581269
-0.2412002 0.02304778 0.19104584 0.25767502 0.16924484 -0.0048581627 0.115595266 0.22485417
0.44840804 0.32790527 0.14123365 0.06510515 0.10349088 0.06450207 -0.033404816 -0.03393191
0.09626978 0.13690281 0.15972702 0.08676251 0.16624454 0.060324457 0.065766044 0.23425253
0.15246178 0.11826739 0.050561484 0.058698688 -0.0058317143 0.09137805 0.0603703 -0.03704279
0.0837746 0.06401178 -0.05489323 -0.06881756 0.18635137 0.27174944 0.11314242 0.22664516
0.12761453 0.32209015 0.37095013 0.24119097 0.17111519 0.008410987 0.29232505 0.36834133
0.33825293 0.12268556 0.08715849 0.06877886 0.08336298 0.19898249 0.043769974 0.07056695
-0.30594376 -0.18699333 -0.1429757 -0.079129085 -0.018019969 0.067192376 0.11467459 0.10018794
0.0921215 0.15780872 -0.113488495 -0.40232104 -0.3798825 -0.39934793 -0.1599258 0.10514515
0.066869095 0.022084821 -0.18142417 -0.16607067 0.082835935 0.10564365 0.033340607 -0.15358122
-0.064219825 0.14948133 0.31571537 0.23208755 0.13727155 0.13342398 -0.52329016 -0.84949356
-0.79612833 -0.29429498 0.22656018 -0.6317906 -0.6372499 -0.4056839 0.20085983 0.57227933
-0.5293345 -0.3469966 0.15649255 0.60606515 0.67245877 -0.2874015 -0.041281555 0.57720655
0.6510966 0.17825188 0.29796472 0.30867985 0.46151406 -0.084425904 -0.15767312 0.35165527
-0.39563447 -0.46296337 -0.49050245 -0.3559696 -0.25375313 -0.5213021 -0.6870526 -0.4904485
-0.15481327 -0.70198154 -0.49878427 -0.4348719 -0.07649633 0.17285277 -0.5601318 -0.27112362
-0.385852 -0.040739395 0.12582837 -0.22361326 -0.23463386 -0.227485 0.3077702 -0.12021817
0.16488536 -0.01641355 -0.08935385 0.09316712 0.43419808 -0.1301604 -0.002447562 -0.039626658
0.35110277 0.5980526 -0.292292 0.08791251 0.5727445 0.243105 0.274014 -0.17370555
0.4585428 0.56099933 0.018005481 0.12794973 -0.18684667 0.28081313 0.1902757 0.048847623
0.13829869 -0.020957382 -0.112670794 -0.032443568 0.081012964 -0.040064406 -0.1895391 -0.26456413
-0.046802577 -0.022062082 0.04290881 -0.20799175 -0.1443513 -0.044134554 0.0605813 0.1300042
0.029678876 0.002646871 0.037494037 0.18399288 0.3021258 0.041455325 0.15832122 0.17485888
0.20526846 0.18529493 0.3720687 0.3761991 0.24687518 -0.093611024 -0.23050663 0.4413647

bias f4 [16]
00000000: d16a 743d c03b 063d 0d9b 36be c59b d43d
00000010: f707 33bb 9a1e 513c 9fd5 44bc 3de1 033e
00000020: 4d7c d8bd 8b80 893d e456 843c 39d0 163e
00000030: 1d56 35bd b2d6 abbd 78e7 e13c 6f4e 6ebd
0.05967218 0.032771826 -0.17832585 0.10381273 -0.002731798 0.012763644 -0.012013822 0.1287889
-0.105705835 0.06713971 0.016154714 0.14727868 -0.044271577 -0.08390559 0.027576193 -0.05818027

weight f4 [120, 400]
00000000: 1f09 c63d 3082 053e 4ac6 13be 3155 6d3d
00000010: 9ea8 10bd 5a2d 8b3d 9459 b13d 4cd3 55be
00000020: 4cc2 abbd bf31 97be 860a 493e 40d6 123e
00000030: fa15 903c 4bbe aabd a638 80bd 2936 1bbe
00000040: ae46 9dbb 07d8 e1bd 1529 663d 3cde d03e
00000050: 57f4 6fbe 93cc 31bd 0c27 35bd 013e f03c
00000060: 76a6 373e 9d7e 1a3e 48bb 683d 0bff 693e
00000070: d5c7 3c3e 583a d03d 73f7 d73d 0baf 4fbd
00000080: 04c6 0d3e 32f8 033f 0076 2e3e e332 b93d
00000090: 58cb 37be 0b05 1b3d e05a e3bd 4a33 abbe
000000a0: 3424 fd3b cf82 f9be f19d fdbe ce99 a8be
000000b0: b46e 96be 14ec 8ebc 2bd9 6cbe 0159 54be
000000c0: 941c 94be 8e29 28be 8dc6 023e 2627 2c3e
000000d0: d78f 1d3e e16a 8cbd 7a86 403d d587 0abd
000000e0: 1d0d f73d 70e4 783e 1432 0039 1ba3 103e
000000f0: a278 aebd 60f7 91bc b715 1fbe 520c 2abe
00000100: 149d 2ebe c4a6 463d e8b5 03bd b196 033e
00000110: fc4f ca3d 4bf9 353d 9958 513e 276f 0f3e
00000120: a732 3fbe 21ac 9cbd 3ee6 7bbd e7ab e0bc
00000130: fb37 53bd d2ac d9bc 3948 383e ee2d 113e
00000140: fbfe a33e 6f5c 5a3e 3ae8 c33c 65cf 803c
00000150: c989 053e 6be2 093f b4ff 9a3e 0195 c83c
00000160: 4ae4 2e3e 4910 b23e a63c e93d 88ba 213c
00000170: 22bf 2bbd 91c0 853c 507e 09bd 0746 4e3d
00000180: 9212 ed3c 4395 073e e60c 3c3e 0526 933e
00000190: 3d82 0a3e bf11 fd3d 9ad8 1f3e e3b5 2d3e
000001a0: 3779 9d3e 58b1 8d3e 1048 353e 7df3 853e
000001b0: 1fed 503e c671 693e 038b c23e d150 033f
000001c0: 52c7 d43d 9dbf 02be 4aeb e4bc 10bc 633d
000001d0: 0d36 413e d71f c1bd b03c 2f3d 754e 3f3d
000001e0: d2fb 9bbd ea77 f6be 7616 93be 35ca b23d
000001f0: 0653 5d3e 7340 b63d d942 6f3d da41 0abd
00000200: fe6c 90bd 42e6 383d 429b bb3c 2204 f7bd
00000210: d4f2 c63d cfa5 17be 2682 3ebe 2dd4 47bd
00000220: 9731 edbe 8267 8f3d ace5 73be eddb bfbe
00000230: 3aea 24be d3e6 d8be a699 05bd e895 f6bc
00000240: 1a43 573d e128 8a3c 6004 963c bdb2 e7bd
00000250: 82ee 52bd 8333 093d 45ce 203e 3d83 dd3b
00000260: e161 c2be 8ba7 cabe 646a 37be 7129 19bd
00000270: c4c3 7ebe c580 c93d 07e8 37be dab0 a5be
00000280: fa16 34be 5c29 d9be 824c 47be c2d0 71be
00000290: 79b0 a4be 1d64 87bd 1057 82be 8e8d ec3c
000002a0: 4dc2 fbbc c334 de3d b50c a73d 45e2 4dbd
000002b0: a8bc d4bd 413c dcbd 0660 b33c 8527 adbd
000002c0: 4230 20be eabc f1bd 652c 5cbe 87df 08be
000002d0: 7f73 33bd 26c6 233d 71bb 5dbe ed55 3abe
000002e0: aec6 0f3c 7665 12bb 590f ec3d 370b d6bd
000002f0: 892c 4fbd bf1d 203e 566c b7bd 6e2c 653e
00000300: 1734 6e3e 3faf 203d c10e 253e 2e79 9fbd
00000310: 1421 aa3d 20e7 8a3d e990 163e c9cd 1e3e
00000320: b178 d3bc de5b 043e 0395 193d c8f3 33be
00000330: a9a0 673a 211d d0bc 8c38 8abe f160 d5bc
00000340: de31 94be 1b2a 843c 4cf0 56be 13d0 cbbe
00000350: f1d1 cf3e e380 fcbd 5c37 4cbe 8f03 1bbd
00000360: c865 823d 6a36 093e 2549 42bc 4be9 b63c
00000370: 8342 303e ebf2 183e 5365 87be c8dc 12be
00000380: ea56 40bb 53ba ea3c 501f 55be 75e8 77be
00000390: 0f40 b2be f47e 42be c833 83bc 387b 41bd
000003a0: 825b b9be 25b2 07be 1c25 873d 84ba 3abe
000003b0: 9c49 a9bd 2afe 4fbe fbd7 d8bd 9c26 ab3d
000003c0: 6def 3cbe b2d1 a73e 60f2 803e 678c e73d
000003d0: 1691 1b3d 5e40 febc 5790 d63d 4e4b cd3d
000003e0: 0413 b13d 7405 a43d c5ba f43d bc10 bdbb
000003f0: e849 6cbe 02d4 183d d01c a23d e126 1e3d
0.096697085 0.13037944 -0.1443111 0.057942573 -0.035317056 0.067957595 0.08659664 -0.20881385
-0.083866686 -0.2953014 0.1963292 0.14339542 0.017588604 -0.08337077 -0.06260805 -0.15157379
-0.0047996854 -0.11027532 0.056191523 0.4079455 -0.23433052 -0.043407988 -0.04422669 0.02932644
0.17934594 0.15087362 0.05681923 0.22851197 0.18435605 0.10167378 0.10545244 -0.050704043
0.13845068 0.5155059 0.17037201 0.09042909 -0.17948663 0.037846606 -0.111013174 -0.33437568
0.007725263 -0.48732612 -0.49534562 -0.32929844 -0.29381335 -0.017446555 -0.23129718 -0.20737077
-0.28928053 -0.16422102 0.12771054 0.16811809 0.15386902 -0.06856323 0.047003247 -0.033820946
0.12063048 0.24305892 0.00012225687 0.1412472 -0.08519103 -0.017818153 -0.15535627 -0.16606262
-0.17052108 0.048498884 -0.0321559 0.12850453 0.09878537 0.044427197 0.20443954 0.14007245
-0.18671666 -0.076500185 -0.061498873 -0.02742572 -0.05156706 -0.026571665 0.17996301 0.14177677
0.32030472 0.21324323 0.023914445 0.015723893 0.13040842 0.5386111 0.3027321 0.024485113
0.17079273 0.3477805 0.11388521 0.009871133 -0.041930325 0.016327174 -0.033567727 0.050359752
0.02893952 0.13240533 0.18364295 0.28739944 0.13526244 0.123569004 0.1560997 0.16963916
0.30756542 0.27674365 0.17703271 0.2616233 0.20402955 0.22797307 0.37996683 0.5129519
0.1038958 -0.12768407 -0.027944226 0.055599272 0.18868275 -0.09429901 0.042782485 0.04670568
-0.0761639 -0.48138362 -0.28728074 0.08729974 0.21613702 0.088990115 0.05841336 -0.033754207
-0.070520386 0.045141466 0.022901181 -0.12061335 0.097142845 -0.14809345 -0.18604335 -0.04878633
-0.46326897 0.070021644 -0.23818082 -0.37472478 -0.16104975 -0.42363605 -0.032617234 -0.030100778
0.052554227 0.016865196 0.018312633 -0.113133885 -0.05149699 0.03349639 0.15703686 0.0067600296
-0.379653 -0.3958095 -0.17911679 -0.037393037 -0.24879366 0.09839014 -0.17959605 -0.3236149
-0.1758689 -0.42414367 -0.19462779 -0.23614791 -0.32165888 -0.06610892 -0.25457048 0.028876092
-0.030732298 0.10849907 0.081567205 -0.050264616 -0.10387546 -0.1075368 0.021896373 -0.084548034
-0.15643409 -0.118036106 -0.2150131 -0.13366519 -0.043811318 0.03998389 -0.21653534 -0.1819684
0.008775396 -0.0022338307 0.11526365 -0.10451358 -0.05057958 0.15636347 -0.0895621 0.2238023
0.23262058 0.039229628 0.1611891 -0.07786785 0.083070904 0.06782365 0.14703716 0.15508188
-0.025814386 0.1292567 0.037495624 -0.17573464 0.0008835891 -0.025404515 -0.26996267 -0.026047202
-0.28944296 0.016133359 -0.20990103 -0.39807186 0.4058986 -0.12329271 -0.19942993 -0.03784519
0.063670695 0.13399664 -0.011858259 0.02232804 0.17212872 0.14936416 -0.26444492 -0.14342034
-0.002934868 0.0286533 -0.20812726 -0.24209769 -0.34814498 -0.18993741 -0.016015902 -0.04723665
-0.36202627 -0.1325155 0.06598875 -0.18235213 -0.08265993 -0.203118 -0.1058807 0.083569735
-0.18450709 0.32777172 0.25184917 0.113060765 0.03798016 -0.031036552 0.104767494 0.10024129
0.08646205 0.080088526 0.11949686 -0.005769817 -0.23075068 0.03731156 0.07915652 0.038611297

bias f4 [120]
00000000: cdb4 a53c 4232 30bd e7cc 823c c125 393c
00000010: 4e0f 8c3d bebe 47bd 4516 a7bb 8aa5 32bd
00000020: 2876 87bd 0c39 2b3b b5bd a5bd ed7f 90bd
00000030: 9f20 c13d 268e a4ba a9dd 96bd 970a abbc
00000040: bcd0 643c c135 d7bc d247 a1bc f56a 703d
00000050: 300b 3a3d 353e 503d c051 8bbc aac1 63bd
00000060: 836e 5a3c 83dc 223d 6a42 8fbd b1c3 ac3b
00000070: c759 b6bc a8a5 6ebc 611b 82bc 27ca 82bb
00000080: 62fc f23c c2a4 febb 94e8 8d3d fa42 94bd
00000090: ffe7 40bd 611d bfbc a879 8d3c 516a a23c
000000a0: 5af4 c23d c022 dfbc a047 8abc f438 94bd
000000b0: 6af1 3cbc e805 88bd f547 813b d2ce 093d
000000c0: 137a 0e3d 5cb5 6cbd bb7a b23c d898 eb3c
000000d0: 73cc 0a3d 228a 6abd f197 84bd a3da a33c
000000e0: 4562 c0bc e5f3 c83c 82cf a43d 2c13 9cbc
000000f0: 0194 8e3d 1c7a 83bd a192 e73b 1f7c 07bd
00000100: 2c36 563d 2d8e a63d 1ac4 423b d033 26bc
00000110: fd35 11bd d0a5 143d 26af 7dbd 3892 5dbd
00000120: f728 a03a 8583 8fbc 69d2 8cbd 24c4 0e3d
00000130: ac7d 0dbd f669 37bd bbfc e5bc dbf5 1bbd
00000140: 1afe 343d 83cc 44bd ef01 8c3d 7f3d f9bc
00000150: 09e5 37bd 21f6 60bc 2b98 d9bb b30c 48bd
00000160: f4b8 563c 6e8b 9a3d 7bfb e8bc 6a98 20bc
00000170: 6558 3f3d 243e 2bbd 0f4c 77bd 8c63 773d
00000180: e8aa 8bba d690 91bc 0415 6dbc 4f16 90b8
00000190: 7670 5d3c 9dff 79bb 413f 2c3b 98ec 97bd
000001a0: 4927 9e3c 502a 32bd 9b9e 7d3c f3b5 b6bd
000001b0: 6991 863c f18e 8e3b 0de3 943c 5895 0e3c
000001c0: d056 d2bc 4144 aabc 4434 42bc 215a 47bb
000001d0: fc9e d0bc 81a0 8dbc 580f 023c 7591 d4bb
0.020227814 -0.04301668 0.015966846 0.011300505 0.06838857 -0.04876589 -0.0050990903 -0.0436149
-0.066143334 0.0026126532 -0.08092824 -0.0705565 0.0943005 -0.001255457 -0.07366497 -0.020879073
0.013965782 -0.026270749 -0.019687567 0.058695752 0.045420825 0.050840575 -0.017006755 -0.055604614
0.013332012 0.039761078 -0.06995089 0.0052723517 -0.022259606 -0.014565863 -0.015882196 -0.0039913836
0.029661361 -0.0077711055 0.069291264 -0.07239337 -0.04709625 -0.023329439 0.017269924 0.019826086
0.095192626 -0.02723825 -0.016879857 -0.072374254 -0.011532167 -0.066417515 0.0039453455 0.033644505
0.034784388 -0.057790145 0.021787038 0.028759405 0.033886384 -0.05726064 -0.06474293 0.020001715
-0.023484359 0.02453036 0.080473915 -0.01905211 0.06961823 -0.06419775 0.00706704 -0.033077355
0.052297756 0.08132587 0.0029718936 -0.010144189 -0.035451878 0.036290944 -0.061934613 -0.054094523
0.001221924 -0.017518768 -0.0687607 0.034855023 -0.03454368 -0.044778787 -0.028074613 -0.038076263
0.044187643 -0.0480466 0.06836306 -0.030424831 -0.04489616 -0.013730557 -0.0066404543 -0.048840236
0.01310562 0.07546125 -0.028440228 -0.009801963 0.04671516 -0.04180731 -0.06037527 0.06039767
-0.0010655792 -0.017769258 -0.014470343 -6.8706104e-05 0.013515582 -0.0038146742 0.002628282 -0.074181736
0.019305842 -0.043497384 0.015479709 -0.08921423 0.016426759 0.004350536 0.018174672 0.0087025985
-0.025676161 -0.0207845 -0.011853281 -0.0030418711 -0.025466435 -0.017288448 0.007938229 -0.0064870664

weight f4 [84, 120]
00000000: efab 353c 7fc9 acbd b09b bf3d a1cc 71be
00000010: 3873 c2bd 5735 013f 11a9 a83e aae0 87be
00000020: b875 ba3e 6269 a8be 8f66 b43c 26f0 f93e
00000030: 72c6 d23b 55d8 d03e a9a7 c7bc 11c3 823e
00000040: ced4 88be af1b 5b3e e82f bfbe 0121 e4bd
00000050: bdac a73e fd4f 093e 8bb6 b63e df28 8dbe
00000060: a362 943e b0c1 853e 5a9c a7be 641c dd3d
00000070: 546c 7a3e ee2d 28bf 031c 903d 4d41 86be
00000080: 1121 893d 8ca9 5c3e a295 32be bb61 363f
00000090: 972e f0bd 7e52 99bb 32f3 8fbe 781c 91be
000000a0: 3380 6f3d 66d4 dcbd 56b9 69be e781 8e3d
000000b0: adb8 b73d 455a 7bbe 0f99 8f3d 9810 c03d
000000c0: 4384 f3ba 769c dc3e 207f afbe 1bdd 1abe
000000d0: dd20 b7be f6bb 8a3d ba67 fcbd f1b6 903d
000000e0: 1526 053e 86ea 4fbd bfda 6bbd ded1 d9bd
000000f0: b497 d2be 7f72 753d ff92 d23d 3c01 36bd
00000100: 670f d23e 3c03 79bd 0ada 163f c9dd 47be
00000110: 262a 873e 2257 e6bd 5ea4 b83e f499 823b
00000120: 598a 5bbc b6e8 053e d0fb 14be 1836 57bd
00000130: 801f 933e 2c74 e63e 5f56 b2be 80cf 9cbe
00000140: f0a6 45be 98af c33d 67a2 2abe 656f f33e
00000150: 495f 613e f4b7 ab3e 861a 173e af38 893d
00000160: c5fc b33e c4bf df3d 3f7a 0cbf 82ff 74be
00000170: a6e5 c2be 35c1 823e 1315 13be a7a2 dbbd
00000180: f3f9 573c 3b07 eebe 56ac c73e a59c 4f3e
00000190: 8a6b 873e 5fdd 21be a126 1b3d 64ca 493d
000001a0: 3a7c 2b3e a4cb 36be a7be 22be 9cc1 593e
000001b0: 3770 cb3e 9716 99be b9ce 75be d7a2 c33e
000001c0: dcb8 c4bd ee94 2ebc bfca 65be bdfe 96be
000001d0: b422 1bbe 705e 443e 73f0 933e 954a 63bf
000001e0: 42d0 493d fce4 123d 005c 12bf 8ae4 c7be
000001f0: 2114 9fbc 69d8 e83e ec8e 43bc 351d ad3d
00000200: ec83 5bbe 15c5 21be 41ec debe 657e 893e
00000210: 69f3 81be 01f2 443d 285a 0f3e 25e8 b63e
00000220: 7768 a23e b5ae 423e b556 a6bd d69e 81bd
00000230: 0083 2bbe 26ed 02be 2db5 47bc f8b6 d0bd
00000240: a3d4 01be 650a 87bd b1ae f83d cf04 803e
00000250: 9bee d2be b12b 0f3e 9180 3fbb 9a4b 5cbe
00000260: 2d0c 8dbe bcd1 bb3e db03 203e c40c 1a3f
00000270: b093 ae3e 5764 32bd 5e40 6e3f 0fbe e23d
00000280: 57be 40be fc75 563e abb8 d13d 66c2 183e
00000290: 9551 62bd 0df4 cb3d 7d68 1abf 57f2 c3be
000002a0: 423c e3be 51ba 6abd 8ff4 ea3d e933 8f3b
000002b0: 57bf 4ebd 7190 7e3e 5323 b13c 03c2 173f
000002c0: 4e39 e2bd bbf2 8dbe 55c2 a73d 27c5 4c3e
000002d0: 0d7a 843e e37f 72be 5a70 4fbe 2c86 cdbc
000002e0: d61e 73bd 6cf4 24be 874f 3abc 5597 74be
000002f0: 7c48 b2bd db73 0e3e 3f07 0cbf 218a 0c3e
00000300: 2917 01be c053 d63e 71a6 403e cc1b ddbd
00000310: 14b7 433e 6603 efbe f9b4 853e 8e41 a53e
00000320: 5680 32be e1e5 b63e 5a0b fd3c 7e4d d0be
00000330: 2c86 6f3e a01f 90be 94c2 1ebf fcfe 143e
00000340: f628 dd3d 8ad6 04bd a19c 2e3d 4e2e f93e
00000350: 8e92 b9be 5aa5 413c ab8a 5f3e 6629 0dbe
00000360: ca07 483c 24e1 f73e 8517 27be 538e 83be
00000370: bb7d 8f3e f8f8 883e b49e eb3d 157c e43e
00000380: cd32 b2be 8cd4 363e 45e8 d8bc 8d4b 43be
00000390: 1a77 c9be 4ce0 363e 9d1b 193f c00f 3cbe
000003a0: 3473 b73d e0eb 97be 1c3c e73e 207c 5c3d
000003b0: e8ec e33e ef7e b23e 0a2a d9bd d458 89be
000003c0: 8554 46be 8dab ec3d 5064 b3be 29ec 31be
000003d0: 1428 183e 088d da3e 07af c43d d9a7 b93e
000003e0: fca2 acbd 2578 3bbe d9f6 c0be ed67 483d
000003f0: 0ece 22be 6acc 923e a2af 103e b958 003d
0.011088355 -0.0843687 0.09355867 -0.23613216 -0.094946325 0.50472015 0.32941487 -0.26538593
0.36417937 -0.328929 0.02202156 0.4881603 0.006432348 0.40790048 -0.024371939 0.2553945
-0.26724857 0.21397279 -0.37341237 -0.111391075 0.32748976 0.1340942 0.35686144 -0.27570245
0.28981504 0.26124334 -0.32736474 0.10796431 0.24455386 -0.65695083 0.07036593 -0.26221696
0.0669576 0.21549052 -0.17439893 0.71242875 -0.11727636 -0.0046790233 -0.2811523 -0.28342032
0.05847187 -0.10782699 -0.22824606 0.06958371 0.08970771 -0.24546154 0.070116155 0.09378165
-0.0018578846 0.4308812 -0.34276676 -0.15123408 -0.3576726 0.06774132 -0.12324472 0.07066143
0.13002808 -0.05076077 -0.05758166 -0.10635732 -0.41131365 0.059923645 0.102819435 -0.04443477
0.41027376 -0.0607941 0.5892645 -0.19518198 0.26399344 -0.11247088 0.36062902 0.003985638
-0.013399684 0.13077053 -0.14549184 -0.052541822 0.2873497 0.45010507 -0.3483152 -0.3062706
-0.19301963 0.09554976 -0.16663514 0.47545925 0.22009005 0.33538783 0.14756212 0.06700265
0.35153785 0.10925248 -0.5487403 -0.23925593 -0.38065833 0.2553803 -0.14363508 -0.10724383
0.013182151 -0.4648989 0.3899867 0.20274599 0.26449233 -0.15807103 0.037878636 0.04926528
0.16746607 -0.1785112 -0.1589304 0.21265262 0.3973405 -0.29900047 -0.2400464 0.38210174
-0.09605572 -0.010655625 -0.22440623 -0.29491225 -0.15149957 0.1917665 0.28894386 -0.8878568
0.049270876 0.035862908 -0.5717163 -0.3904155 -0.019418778 0.45477608 -0.011935931 0.084528364
-0.21437043 -0.15797837 -0.43539622 0.26854244 -0.2538102 0.048082355 0.13999236 0.35723987
0.31720325 0.19011958 -0.08122007 -0.06329124 -0.16749191 -0.12785777 -0.012189192 -0.101911485
-0.1267877 -0.065937795 0.12142695 0.2500367 -0.41197667 0.1398151 -0.0029220919 -0.21513215
-0.27548352 0.36683452 0.1562647 0.6017573 0.34097052 -0.043552723 0.93066967 0.11071407
-0.18822609 0.20943445 0.10240301 0.14917907 -0.055253584 0.09958658 -0.60315686 -0.38270828
-0.4438191 -0.05730659 0.11472427 0.004370202 -0.050475445 0.24859788 0.02162329 0.59280413
-0.11046086 -0.2772425 0.08191363 0.19997083 0.25874367 -0.23681597 -0.20257702 -0.025088392
-0.05935558 -0.16108865 -0.0113715 -0.23885854 -0.087052315 0.13911383 -0.54698557 0.13724567
-0.12606491 0.4186077 0.18813492 -0.107963175 0.19112808 -0.4668228 0.26114634 0.32276577
-0.17431769 0.3572226 0.030889202 -0.40684122 0.23391026 -0.28149128 -0.6201565 0.14550394
0.10798828 -0.032431163 0.04262984 0.4866814 -0.36244625 0.011819208 0.21830241 -0.13785324
0.012208888 0.48413956 -0.16317566 -0.25694522 0.28025612 0.26752448 0.115048796 0.44625917
-0.34804383 0.17854518 -0.026477942 -0.19071789 -0.3934868 0.17859 0.5980776 -0.18365383
0.0895752 -0.29672146 0.45163047 0.053829312 0.44516683 0.34862468 -0.106037214 -0.26825583
-0.19368179 0.11556158 -0.3503747 -0.17375244 0.14859039 0.42685723 0.09603696 0.3626087
-0.08429524 -0.1830755 -0.3768833 0.048927236 -0.15898916 0.2867158 0.14129499 0.031334613

bias f4 [84]
00000000: 2ce8 043d 0753 a23c 3f1c 343d da85 cebd
00000010: f216 a63c 5149 0e3d f303 2c3d ec16 ae3d
00000020: 9042 4c3c d16e c8bc bf2f bd3d 1de3 f33c
00000030: 7634 033d 7e03 8dbd 95d3 b3bc 5f18 5dbd
00000040: f969 aabd 9f40 633d 4e1e 65bd 947f 1ebd
00000050: 0e4a bf3b 24d8 e33c a65f 21bd 6849 edbc
00000060: ca2e e9bd 87cc acbc 25e1 c1bd f066 0f3e
00000070: 0a76 8abd 3559 e3bd ea23 0b3d 60cc 40bd
00000080: d0c7 c43d 41ca 553d d1e9 ef3c efb8 76bc
00000090: 116c 723d 5d43 76bc 4f3d 62bd ffad 51bd
000000a0: 0bb7 cbbc 2790 3d3d 2378 ccbd ac2b 07bc
000000b0: 0797 c3bc 3c0b 2fbd a582 c93d 993b c33b
000000c0: 257a ba3b 36b3 c9bc 06de 613c cbfa eb3c
000000d0: bc6a 2b3a 7a0f 8ebd 5ae7 a03d 0387 a43d
000000e0: 24fc 4ebd 6702 27bc a90a 2dbd 4f2c 6bbd
000000f0: bcd8 05bd 75cf 8f3d ce7f 233c fd7c 50bd
00000100: caf9 a53d a45e 94bb b9b0 5cbd e9d3 17bd
00000110: 7f1a 793d f213 85bd f756 943c 45e5 533d
00000120: 8a66 e03c 40a5 11bd a459 6fbd 29b3 fd3d
00000130: 9b8d 4b3d a315 9fbd 4e85 803b 5927 42bd
00000140: 79cb 85bd 9296 b7bd dfb6 b03d f3d3 b53d
0.03244798 0.019814981 0.04397225 -0.10084124 0.020274613 0.03473789 0.041995954 0.08500466
0.012467042 -0.024466904 0.092376225 0.029771382 0.032032453 -0.06885432 -0.021951476 -0.05397832
-0.08320994 0.05548155 -0.055937104 -0.038695887 0.0058376854 0.027813025 -0.039397858 -0.028965667
-0.113858774 -0.02109362 -0.09466771 0.14004111 -0.067607954 -0.11100999 0.033969797 -0.047069907
0.09608424 0.052194837 0.029286297 -0.01505874 0.05918509 -0.015030709 -0.05523425 -0.051191326
-0.024867555 0.046280053 -0.09983852 -0.008250158 -0.023875726 -0.042735323 0.098393716 0.0059580323
0.0056908303 -0.024621587 0.013785845 0.02880611 0.0006539037 -0.06936546 0.07856627 0.08033564
-0.05053343 -0.010193444 -0.042246494 -0.057415303 -0.032677397 0.07021991 0.0099792015 -0.050900448
0.08104284 -0.0045278836 -0.053879473 -0.037067328 0.060816284 -0.06497945 0.018107874 0.05173232
0.027392644 -0.035557985 -0.058435097 0.12387688 0.049695592 -0.07767799 0.003922141 -0.047400806
-0.0653295 -0.08964266 0.0862863 0.08878317

weight f4 [10, 84]
00000000: 7f3b b1be e7e1 f33e 6ede b23e 908e 41bf
00000010: c365 08bf c015 c33d f88f 09bf 3dbd 35bf
00000020: e41c 82be f6a0 36bf 4ef8 af3e 80db 76be
00000030: 81d9 b5bd de4f cfbd e793 8d3e 2551 16bf
00000040: 2ebf b8be 9fc6 32be e60e ce3e 696f 81be
00000050: 3521 f4bd 467a b13d 62b5 3c3e d396 913e
00000060: e167 eebe 74e2 79be 1fd4 eebe a4bc 9c3e
00000070: 7a57 713e bc0d 393e 32a5 6e3e 43b0 813e
00000080: 8007 b93e ae7f 2ebf 9287 4b3e 5268 94bc
00000090: 135e 33bf f62b 873e e340 3bbe 72cd c63e
000000a0: 9673 c53e fa18 46bd 9334 2dbe d9b2 903e
000000b0: 34d1 da3e 5ae6 173f f49c 8e3e 6ab5 883e
000000c0: 6a8f 933d 5e68 55be 0941 33bd 4586 703e
000000d0: 3df9 09bf 4dc4 073f 1dfd 51bf 6736 b0be
000000e0: f9cd aa3e a101 9f3e e14e 5a3e b62a 48bd
000000f0: 27c1 a33e 30d9 5c3d 0282 c23e b00f 25bf
00000100: 092e 3d3e 6e37 1ebf 89e5 39bf b6a1 ae3e
00000110: c599 623e 16c8 0cbe bde6 9ebe a033 f7be
00000120: d936 1fbf 979d 8ebe ea61 dfbe 3923 b63e
00000130: 7a9c 543e 769d ba3e d30a 3fbf 0a1a 16bf
00000140: a49a 99be 5eb1 b9be ba09 8f3e 4bb1 0bbe
00000150: 23f2 aa3d af93 e5bd 501b 03bf f7ca b33e
00000160: 9bfa bdbe 6813 30bf d419 943e bb3a 323e
00000170: d330 873e 1616 9c3e f09d 0fbf bbf8 12bf
00000180: 8ac2 a03e c025 07bf 68b4 38bf edf9 c03e
00000190: d9d5 363e b68f ae3e 9e98 33be b52f b0bd
000001a0: e9ea e93e 7a50 9e3d 35a8 5a3e e271 0c3f
000001b0: 48ab b53e 217a 6f3e 7700 9abe 99ee e1be
000001c0: 0834 463e fe08 8f3e ea6b c1be 7407 923e
000001d0: 16b7 02bf 5260 14be 5cd4 073f 0854 8a3e
000001e0: 2793 62bb b703 8d3e 1d71 843d 072d dfbe
000001f0: 4cf3 f7be 0504 793e b985 a83e 8b4b b4be
00000200: a2ac cebd 5ae0 a9be dadc e33e ae98 26bf
00000210: b777 cf3e e8f2 f83d 6414 cd3e 3127 02bf
00000220: 1481 a3bc b3a1 b73e 1099 b73e 4c1c 44bf
00000230: e710 e0be 94e0 b2bd 878e 12bf f455 11bf
00000240: 67d8 9cbe 9095 f7be ee39 8f3e cdff 14bf
00000250: 24f0 27bf afe8 0dbf 97ae 573e 941f 7abc
00000260: 73ba 0fbf 3808 aa3e 692d 0e3f 5f15 edbe
00000270: 2375 233e c313 113e 6ef6 103e ce7a 82be
00000280: d5d1 20bf 283c dcbe a536 aabd b9c3 ffbe
00000290: 6570 d13e 62a5 aa3e 6f08 dcbe f8e2 833e
000002a0: dddb 893e 8878 0cbf db41 09bf 31a8 dbbe
000002b0: 5148 62be 3b65 573d 723c 10be b8d3 9b3e
000002c0: a4a4 ef3e 5a7e c03e 81ed 26bf 888f 883e
000002d0: c841 91be 6c2a 713e 584f de3e f201 4dbf
000002e0: 45cd a83e 986e b5be 6fcc 2f3e 257d 6a3e
000002f0: 5a85 afbe e787 e63e 0ff6 5a3e b2ad 2cbf
00000300: 3338 e83e 0761 ab3e 541e 34be 8a91 013f
00000310: 916e 0dbf 0bfe ad3e 4eb3 6abf e4c4 003e
00000320: df5c 233f 04bd 0fbf e221 17bf 78ad d2be
00000330: a3fe fcbe 2aca 02bf a654 5ebe d1a1 a1be
00000340: dfb7 943e dd7a 643e 0bcd f8bd 365f 4e3e
00000350: 8374 3cbf 3900 36bf 54b0 a23e 9a32 723e
00000360: 0776 9c3e 2fb7 a23e 34bd 44be 8187 1d3e
00000370: b3cb a9be 6068 d4be fbb2 17bf 9fd2 d7be
00000380: d4b9 d03d 8952 36bf 80c4 e0bd d4cf 9ebd
00000390: 7e1b 17bf 5f46 aa3e b8e6 a43e cfef ecbe
000003a0: 38cb 5b3e 89ea 683e 1db2 853e 3852 b7be
000003b0: 0822 303e b538 38bf cef3 06be 675e 03bf
000003c0: df7c 533e af67 d63e 4864 993e 30bc c1be
000003d0: 4fef 763e 0da1 c43e 902e 36bf bfe1 bcbe
000003e0: 3592 4dbd 43f4 cd3e 5a8f 44bf 2cfe 973e
000003f0: 587f f63d 515a 34be b514 eebe 3b05 593d
-0.34615704 0.47633287 0.34935325 -0.7560816 -0.53280276 0.09525633 -0.53735304 -0.7099188
-0.25412667 -0.71339357 0.3436913 -0.2410717 -0.08879376 -0.10122655 0.27651903 -0.58717567
-0.3608336 -0.1745858 0.40245742 -0.25280312 -0.11920396 0.086659 0.18428567 0.28435382
-0.46563628 -0.24402791 -0.4664621 0.3061267 0.23568526 0.18071645 0.23305205 0.2532979
0.36138535 -0.68163574 0.19875935 -0.01811615 -0.7006542 0.26400727 -0.18286471 0.38828617
0.38564748 -0.048363663 -0.16914587 0.2826145 0.42737734 0.59335864 0.2785412 0.26700908
0.072050884 -0.20840594 -0.043763194 0.2348872 -0.5389593 0.53033906 -0.82026845 -0.34416506
0.3336027 0.3105593 0.21319152 -0.048868857 0.319833 0.053918064 0.37989813 -0.6447706
0.18474592 -0.6180333 -0.7261587 0.3410775 0.22128971 -0.13748202 -0.31035414 -0.48281574
-0.62193066 -0.27854607 -0.4362939 0.35573748 0.20762816 0.36448258 -0.7462589 -0.5863348
-0.30000794 -0.36268133 0.27937108 -0.1364185 0.08346965 -0.11209809 -0.5121355 0.35115787
-0.3710526 -0.6877961 0.28925955 0.17405216 0.26404437 0.304856 -0.5610037 -0.5741078
0.31398422 -0.52791977 -0.7215028 0.37690678 0.17855014 0.34094018 -0.17538688 -0.086028494
0.45687035 0.077301934 0.21353228 0.5486127 0.3548224 0.23386432 -0.3007848 -0.44127348
0.19355786 0.27936548 -0.37777644 0.2852131 -0.51060617 -0.14489868 0.5305841 0.27017236
-0.0034572573 0.27541897 0.06466887 -0.4358904 -0.48427808 0.2431794 0.32914522 -0.35213885
-0.10091521 -0.3317898 0.44504434 -0.6507672 0.40521023 0.12155706 0.4005462 -0.5084105
-0.01995901 0.35865554 0.35858965 -0.7660568 -0.43762895 -0.08734241 -0.5724873 -0.5677178
-0.30633852 -0.48356295 0.27973884 -0.5820282 -0.656008 -0.5543317 0.21062694 -0.015266318
-0.56143874 0.33209395 0.5553804 -0.46305367 0.15962653 0.14167695 0.14156505 -0.25484318
-0.6282018 -0.43014646 -0.08311204 -0.49954012 0.40906063 0.33329302 -0.42975184 0.257591
0.26925555 -0.54871416 -0.5361611 -0.42901757 -0.22097899 0.052586775 -0.14085558 0.30434966
0.46805298 0.375964 -0.6520615 0.26672006 -0.283705 0.23551339 0.4341991 -0.80081093
0.32969108 -0.3543594 0.17167829 0.22899301 -0.34281427 0.4502556 0.21382926 -0.6745254
0.45355377 0.33472463 -0.17589694 0.506127 -0.55246836 0.33982882 -0.9167985 0.12575108
0.63813585 -0.5614779 -0.59036076 -0.4114797 -0.49413022 -0.5108973 -0.21711978 -0.3156877
0.29046533 0.22312494 -0.12148484 0.20153508 -0.7361528 -0.7109409 0.31775153 0.23652115
0.30558798 0.31780383 -0.192128 0.15383722 -0.33163223 -0.41485882 -0.5925748 -0.4215288
0.10191694 -0.7121969 -0.109749794 -0.07754484 -0.59026325 0.33256814 0.32207274 -0.4627671
0.2146424 0.22745718 0.26112452 -0.35804915 0.17200482 -0.7196153 -0.13178942 -0.5131592
0.20653103 0.4187598 0.2995932 -0.37838888 0.24114726 0.38404122 -0.711648 -0.3689098
-0.050188262 0.4022542 -0.7678124 0.29686105 0.12036008 -0.17612578 -0.46500173 0.052983504

bias f4 [10]
00000000: c3b7 9d3d ec61 07bd 4e35 0a3e 0eed 993c
00000010: 7b82 84bd 3f8b 003d 6cf2 afbd e0e0 53bc
00000020: 553b 353d eae7 aa3d
0.077010654 -0.03305237 0.13496897 0.018789794 -0.064702 0.031382795 -0.0859116 -0.012932032
0.044246037 0.08345015
