Digit-Recognize/LeNet.bin (torch, 252423 bytes, 10 tensors)

weight f4 [6, 1, 5, 5]
00000000: db9e a53d ad61 50be 68fb 663d de53 2ebe
00000010: d6f5 593d c5ba 1b3e 8bd6 0ebe 5cc6 47be
00000020: e6ee b6bc 499b 1c3e d067 593e 8d86 48bf
00000030: cc4b 4d3d 5198 033e c389 6dbd 1d2c 0abe
00000040: 530b aabe 6a39 643e b745 f13c 77d6 31bd
00000050: 00ec cebd 1b29 41be 2651 84be 2ac4 c73d
00000060: 676a 2b3e 5992 893e 48cc 643e 5bd4 e03d
00000070: f990 3c3e 83ca 94bd ed46 5b3e b642 3bbe
00000080: 7983 f1bd dd91 d4bc 9996 7abe 14bd e7bd
00000090: 9c9d 5fbe 960e 263d 8bb0 91be d8d4 a2bb
000000a0: eedc ae3d dd3c b7bc 0048 0abe 4935 0dbe
000000b0: 4399 ad3d 5605 aa3c 9687 d6bd 7b02 89bc
000000c0: d130 99bd 0706 1b3d 04ed aa3d 597c 24bd
000000d0: e026 fe3b 6b38 56bd af41 a23d 880d 323e
000000e0: e953 4abc e0c7 ed3c 37b9 e7bc 510b 023d
000000f0: aaf3 9b3e f6ea 60bd 2501 873c ed28 5e3d
00000100: 8f27 ca3d 91e3 a53e 7131 173e 44dd 52be
00000110: 50f3 523d 9210 c5bc 9a50 403e 5262 663c
00000120: c3a0 23be 7c65 dcbe d333 89be 020a b93c
00000130: a94f c03c be63 173c 1150 9ebd 23d2 823e
00000140: d5f5 45be 27ad efbd 0c47 ddbd 62df 7ebd
00000150: c46b 613e 4c95 1e3e fea9 913d e7ab fdbd
00000160: 4a2a cc3c 462e 653e c333 243d c94c 06bd
00000170: 498a ddbd 23cb 783d 0757 683e 5366 f9be
00000180: f086 0cbe bd00 b73c 3bba cb3e 9b35 823d
00000190: 5f63 d63d 8d2e 033e 698e 6b3d b199 84bd
000001a0: b152 e53d f85d 91bd 220f 193c 0a4e 573e
000001b0: ebfe 65bd 83ff 203e 3837 33be e988 8c3e
000001c0: 672f fe3c d981 28bd b715 103e 9746 afbd
000001d0: ce40 2e3e a6a5 5fbd 2463 b5be 379e 2dbe
000001e0: 5727 c43c 3e2c cb3d a0e1 9ebd 0ca6 03be
000001f0: c266 e6be 7293 07bd 1992 7c3d db5a 1abe
00000200: a8d9 3c3d 7fec 863e c084 25be 7296 ea3d
00000210: 1d97 f3bd f160 873e 95c4 493e 3b75 a63c
00000220: 1fbe a7bd e22e f73d eb76 023f 0ad0 7ebe
00000230: 7b62 1ebd 7ae4 a63d 921e c83e c213 50bd
00000240: 03ec 64be 38d8 a83d c3c2 0e3d cf0d 2b3e
00000250: a7da dabd d336 21bd
0.0808694 -0.2034976 0.056392103 -0.1702418 0.053212963 0.15207966 -0.13949029 -0.19509262
-0.022330713 0.15293612 0.21231008 -0.7833031 0.050121114 0.12851073 -0.057992708 -0.1349339
-0.33211765 0.22287527 0.029452188 -0.04341742 -0.10103607 -0.18863337 -0.2584316 0.09754212
0.16739808 0.26869467 0.22343552 0.109780036 0.18414678 -0.072651885 0.21413775 -0.18287167
-0.117926545 -0.02594846 -0.24471511 -0.11315361 -0.21837467 0.040541254 -0.28455004 -0.0049692206
0.08538233 -0.022367889 -0.13504028 -0.13789858 0.08476498 0.020754497 -0.1047508 -0.016724816
-0.07480014 0.037847545 0.083459884 -0.04015765 0.007756099 -0.052299898 0.079226844 0.17387974
-0.012349107 0.029025972 -0.02828656 0.031749073 0.30459338 -0.054911576 0.016480038 0.05423825
0.098708265 0.32400182 0.14764954 -0.20592219 0.051501572 -0.024055753 0.18780747 0.014061527
-0.15979294 -0.43046176 -0.2679735 0.02258778 0.023475485 0.009240089 -0.07730115 0.25550947
-0.19332059 -0.11702948 -0.10804567 -0.062224753 0.22013766 0.1548664 0.071125016 -0.123863034
0.024922509 0.22380933 0.040088426 -0.03278807 -0.108173914 0.0607406 0.22689448 -0.4871088
-0.1372335 0.02233922 0.3979052 0.06357881 0.10468172 0.12810726 0.05750886 -0.06474627
0.11197413 -0.07098001 0.009341987 0.21025863 -0.05615131 0.1572247 -0.17501533 0.27448204
0.031028463 -0.041139457 0.14070784 -0.08558386 0.17016909 -0.054601334 -0.354272 -0.16954885
0.02394454 0.09920548 -0.07757878 -0.1285631 -0.45000273 -0.0330996 0.061662767 -0.15073721
0.04610601 0.26352307 -0.16163921 0.114544764 -0.11894057 0.26441148 0.19703896 0.020319572
-0.081905596 0.12069489 0.50962704 -0.24884048 -0.038668137 0.08149047 0.39085823 -0.050800093
-0.22355656 0.082443655 0.034853708 0.16704486 -0.10686236 -0.039358925

bias f4 [6]
00000000: 2914 b1bd 1738 57bc 32ed 493d f0ef 5bbe
00000010: f459 ec3e 59fa bd3e
-0.08646423 -0.013135931 0.049298473 -0.21478248 0.4616238 0.37105063

weight f4 [16, 6, 5, 5]
00000000: 0714 51be f8f8 b7bd 89f3 efbd 4971 ccbe
00000010: e1e7 d2be 4070 bfbe bd5e cfbe 524a eebe
00000020: 62d9 0abf f357 08bf 6540 dcbd 0367 20be
00000030: 19b4 3ebe e2f7 90be 8ea8 aebe 5bde 9e3d
00000040: f606 7f3d e1b6 903e c881 9c3e 08ab 263d
00000050: d629 c83d 13c1 25bd a44f 48bd 5058 03ba
00000060: 9547 863e 567a 8c3c ec4d 4bbe 7ce5 19be
00000070: fbac 92be f1fc 90be 06a4 9ebd 88d6 c93d
00000080: fcdf 833c 8439 153e f000 663d 514c ad3e
00000090: 60f4 2a3f 90b7 103f b7b2 d53e 9dc5 0f3f
000000a0: c5d8 843e 7c5f 363f e01a 453e 9af0 e7bd
000000b0: 33e9 d73c d455 0abe ad75 89bd f2ef 8bbe
000000c0: 690a 88bd e12f 923e 1166 1abe e79f 82bd
000000d0: 1f51 0b3e 868f e93e d692 333f 236c 093e
000000e0: 4e6e 093f 1d11 823f 79f8 7a3f 04a9 383f
000000f0: e78f 1f3e b81b ad3e d661 863e a4eb 01bd
00000100: 0478 babe af25 b7be acad 1cbe 1f39 34bf
00000110: 0ef6 6ebf 40a9 58bf 1f2a d7be f232 353d
00000120: 3df7 c3bd 0147 93be 5bb7 94be 3f02 8bbd
00000130: df38 663e 1cf1 a23e 2e9c e23e c70d 073f
00000140: 6193 b0bd d326 963d df79 6c3e d8fc d53e
00000150: 29c5 953e b972 45be 8715 c8bd 0c0b 663e
00000160: cc0a 3a3e c545 85bd 6101 d6bd 8aee 5cbe
00000170: a1c6 033d 57e4 1ebd 1629 dbbe 1100 b83d
00000180: fa7c 89bd e987 b9bd e21a 87be 7c03 fdbe
00000190: 888c f2bc fc70 aebb 75c4 483e bc28 af3e
000001a0: 269f 603e b58d b93e 655b 163f 7409 633f
000001b0: caad 413f 78c2 253f d156 643e f847 b63d
000001c0: 91b0 303d dd4c bdbd 1db1 4bbd 19f6 71be
000001d0: 1e8c 19bf 4448 59bf a837 2dbf 0c15 d9be
000001e0: 85b0 bfbe 9112 8ebe a553 9ebe 184a e7bd
000001f0: 3424 25bd 7462 623d 711a dc3c c1fc 62bd
00000200: 42e8 143d f192 e73d cbd6 b83d 0a4e 2c3e
00000210: ee6b 813d c7d9 153e 76b2 7e3e 24d8 3e3d
00000220: 070a 1bbe 4def 23bd 64c3 293d 6d6c 29bb
00000230: cd26 c3be f117 25bf 3aa9 f7be 08db 8ebe
00000240: 727c 34be b08d 6bbe 5498 9fbe 5b36 85be
00000250: 1795 90be 13eb 9ebe 9963 29bd b8e6 383e
00000260: 2c09 0c3e b996 083c 8e2c 1abe e476 26bd
00000270: ed5a 653e f763 0f3e f90f babc daed 5fbe
00000280: cd56 aabd 80ad fdbd 7ac0 3ebf d62f 47bf
00000290: 258c b0be d075 a4be a51b d9be 4ac2 ebbe
000002a0: 93d1 dabe ba2b 23be e230 afbd c160 f1bd
000002b0: a66d f8bc e88d 43be 0d17 c53d 4ae3 23be
000002c0: 643e b7be 7012 b3be 9313 ebbd 6c1d 6cbe
000002d0: 3de0 2abd f529 39be 0578 03bf 4998 15bf
000002e0: f674 a3be 9c48 59be daaa 38bf 5438 59bf
000002f0: d68b 9ebe 6eaf b63d 7570 0fbf 78f5 08bf
00000300: 6fa8 26be 5ae5 983e 00b3 883e 8b4c 30be
00000310: eb4b 653e b071 1a3f bc38 073f 6eb7 da3d
00000320: 23ff 5f3e 93e3 73be 2f07 85be 1ab3 a1bd
00000330: a908 8dbd a07a 543e 2fbf d3be 93fd c6be
00000340: 72ab 013d ad01 7a3e 7d60 a7be 16ff 04bf
00000350: 346c 0ebe 8f13 cb3e ddb5 0a3f b238 6fbe
00000360: 9315 1f3d f8ac d63e 3473 013f d37a 9b3e
00000370: 904e ff3d 3100 a43e 095a 6e3e 9166 243e
00000380: 5d7e 37bd e10c 00be 355c 8f3d 0995 19bc
00000390: 32ea 6dbe bb4c 36be 0cc0 50bd a058 893e
000003a0: 5cc5 7b3e 53d4 963d 059a bdbd a624 353e
000003b0: 9ea4 733e c5e5 a63d eee1 d3bd b1d4 4f3d
000003c0: 183a 023d 248f 13be 56ec abbd 0994 373d
000003d0: b45d 703e 9041 8dbe 3d3d a2be dc0f 24bd
000003e0: e6ad e33d 9a45 4b3e cc1d 483d ea74 d2be
000003f0: 8440 afbe caf1 74be 35a1 8dbe d2ee bc3d
-0.20417796 -0.08983034 -0.117163725 -0.3993018 -0.41192535 -0.37390327 -0.40501967 -0.46541077
-0.5423795 -0.532592 -0.1075447 -0.15664296 -0.1862339 -0.2831412 -0.34112972 0.07757255
0.062262498 0.28264526 0.30567765 0.04069045 0.097736046 -0.040467333 -0.048904076 -0.0005010413
0.26226488 0.017148178 -0.19853944 -0.15028948 -0.286476 -0.2831798 -0.07746129 0.09855372
0.016098015 0.14572722 0.056153238 0.33847287 0.66779137 0.56530094 0.4173791 0.5616091
0.25946632 0.7123945 0.19248533 -0.11325188 0.026356315 -0.13509303 -0.06711898 -0.273315
-0.066426106 0.28552154 -0.15077998 -0.06378155 0.13605164 0.45617312 0.7014593 0.13420157
0.53683937 1.0161473 0.9803539 0.721329 0.15582238 0.3381021 0.26246518 -0.031718865
-0.3641969 -0.35770938 -0.15300626 -0.7039966 -0.933442 -0.84633255 -0.42024323 0.04423804
-0.09568641 -0.2876511 -0.2904614 -0.06787538 0.22482632 0.31824577 0.4425978 0.527554
-0.0862186 0.07331624 0.23093365 0.41794467 0.29251984 -0.19282044 -0.09769731 0.22465152
0.18168181 -0.06507448 -0.10449482 -0.2157537 0.03217185 -0.03879198 -0.42804784 0.08984388
-0.067132905 -0.09059126 -0.26387697 -0.4941672 -0.029608026 -0.0053235274 0.19606192 0.34210765
0.2193571 0.36240926 0.58733207 0.886863 0.75655806 0.6474986 0.22298743 0.08900446
0.043137137 -0.09243176 -0.049729455 -0.23629035 -0.59979427 -0.84875894 -0.6766305 -0.4239887
-0.3743936 -0.2774854 -0.3092319 -0.11293429 -0.04031773 0.055269673 0.026868077 -0.055416826
0.03635431 0.11307324 0.090253435 0.16826645 0.06319414 0.14633857 0.24872765 0.046592847
-0.15140544 -0.040023137 0.041446105 -0.002585198 -0.3811554 -0.64489657 -0.48371297 -0.27901483
-0.17625597 -0.23003268 -0.31170905 -0.26018032 -0.28238747 -0.31038722 -0.04135475 0.18056762
0.13675374 0.008336716 -0.15056059 -0.040640727 0.22397967 0.14002977 -0.022712694 -0.21868077
-0.08317337 -0.12386608 -0.74512446 -0.77807367 -0.34481922 -0.32121134 -0.42403904 -0.46046668
-0.42738017 -0.15934649 -0.085542455 -0.117860325 -0.030325722 -0.19097102 0.09623537 -0.16004673
-0.35789788 -0.34975004 -0.11478343 -0.23058099 -0.041717757 -0.18082412 -0.5135501 -0.58435494
-0.31925172 -0.21219105 -0.721357 -0.84851575 -0.3096606 0.08920179 -0.5603097 -0.53499556
-0.1627519 0.2986248 0.26699066 -0.17216699 0.22392242 0.60329723 0.52820945 0.10679518
0.2187467 -0.23817281 -0.25982043 -0.07895489 -0.068864174 0.20749903 -0.413568 -0.38865337
0.031657644 0.24414702 -0.32690802 -0.5195173 -0.13908464 0.3966336 0.5418375 -0.23361471
0.038838934 0.4192884 0.5056641 0.30367145 0.124661565 0.32031396 0.23276533 0.16054751
-0.044798244 -0.12504913 0.07000009 -0.009373912 -0.2323387 -0.17802708 -0.0509644 0.26825428
0.24587005 0.073647164 -0.092578925 0.17689762 0.23793265 0.08149294 -0.10345827 0.050739948
0.031793684 -0.14410073 -0.08394687 0.04481891 0.23473245 -0.27589083 -0.31687346 -0.040054187
0.11117153 0.1985077 0.04885654 -0.41104823 -0.3422891 -0.2392036 -0.27662054 0.09225239

bias f4 [16]
00000000: db97 f8bd 990b 3abd e124 bbbc 51d4 b3bd
00000010: d390 503c 9947 783d 816c 173e 0560 cbbd
00000020: 5459 8f3d 502e 23bd d807 72bd f35b 8cbc
00000030: e4a2 e53d 2684 babd b7a1 f13d 9870 5dbd
-0.12138339 -0.045421217 -0.022844734 -0.087807305 0.012729841 0.060615156 0.14787485 -0.09930424
0.0699946 -0.03983909 -0.05908951 -0.017133689 0.112127095 -0.091072366 0.11798423 -0.054062456

weight f4 [120, 400]
00000000: 4d25 8c3e e1f5 693d 446f a5be 1cd2 34bd
00000010: f313 333d b0c2 9e3e 9a93 97bd 545a edbe
00000020: d496 03bf 1220 febd 2c24 23be f9d1 b1be
00000030: d431 57be 9121 93bd 1d78 60bc 1009 c43a
00000040: 8977 10bd 1f00 1a3e 21b0 603e 01bd 063e
00000050: 34b0 08be 3542 86be dae3 4dbe f4e9 f83d
00000060: 4ce7 2b3e 2d7f 013e dee8 a4be 9d48 34be
00000070: a40a 36be d45b 8bbe f252 153d 4249 313d
00000080: 9ed9 8e3e 94a8 493d 9a25 903d 63a9 8a3e
00000090: c6c5 553e 150d 7f3e 2338 f03e 5781 0a3f
000000a0: ed92 c83d 666a 3fbe c5a8 383d cdc3 113e
000000b0: 1a8c 213e fecb 2fbe 4bda 05be c4fd b73d
000000c0: 2ac6 273d a5f8 51be 63d6 913e 6cac bf3d
000000d0: b4f1 9fbc 64cb 013f 72bc b33e 6d94 a53e
000000e0: 9b1a 2a3c 2c1b 17bf 5232 d3be 7a57 0b3d
000000f0: a6bb 4cbe 82d2 c8be fdf6 62be 2f9b 6bbe
00000100: 80d0 15bd 2b67 19be 8a7e 38be 6cb2 d93d
00000110: 5afd d33d cffc c73d 10a8 9bbc 9755 8cbe
00000120: 4bba 09be 8977 503e 90e0 fe3d 4904 873d
00000130: 73f1 8e3e f202 e3bd ab4b ebbd 35f0 3f3e
00000140: 6006 083e 79eb 4a3e 0ee2 403e 28ec 85be
00000150: 81c7 6a3d 3f48 903d 5bec 2bbe 1fc1 58bd
00000160: b785 46be 44ce 67bd b51c c63d 9a46 79bd
00000170: 7c45 35be ffbe 08bd 890b 8e3d 7dd5 80bd
00000180: 9502 013c 8366 cebd 1381 0b3e 4635 823d
00000190: 7136 813c f613 e93d 8dea f8bd 46d1 1e3e
000001a0: a3bf 123e 2b97 763c fe45 81bd 9f27 e33e
000001b0: 86f7 b1bc 7a36 ce3d 8f3f 12be a258 bebe
000001c0: a95b f9bd 2efd c8be 9a38 8abb f967 0f3e
000001d0: 6706 81bd 713f 58be 220a c0bd 6c71 6f3c
000001e0: e4aa 483e 6df0 033e 3bd2 22be 6c25 84bc
000001f0: 7242 b53d ce71 76bc a227 8e3d a8ee 0bbe
00000200: 1e1e 3fbe 9f09 883d 87dd ce3c 8b3a 4a3e
00000210: 220f 04bd 3d04 d03c c2fd f73d d52c 8f3d
00000220: d64b 233a f94d bf3c 6107 8cbe a9d5 46bd
00000230: 4484 833d 4ce3 53bd 07e6 e9bc a99f 90ba
00000240: 323a 1b3d 0722 373d a184 9a3c 26dc 83be
00000250: 5061 15bc 6f73 a13d 47c3 a23d 947d a9bd
00000260: 47fd b93c 95fa b93e 4571 103f f902 cb3d
00000270: b494 723d 379f a7be 88b4 0a3f 60c0 2a3f
00000280: d6bd 4b3e 91e3 a13e 6c83 c1be ed8e 08be
00000290: 0762 78bd aff0 9a3d 511d 453e 69da bfbd
000002a0: 24d0 edbd f1f4 97bd 566e 8d3d 9d20 52bd
000002b0: da81 943d c2b8 ce3c afd7 353c 2d34 2b3e
000002c0: f10b de3d 974e 163e 6917 15bd 5c6e 91bc
000002d0: dbf3 e33c fb34 823e 88af d23d 8dbf 6bbd
000002e0: d15b aebd 3e1e babd cb01 5e3d ca64 2f3d
000002f0: f0ee b73c d0e6 c4bd 0d87 81bd 2b81 92bd
00000300: 750d ef3d 7418 2c3d 67f1 bf3d 982d 96bd
00000310: 806d 563d 447f 813d bfca 083e f2f6 f83b
00000320: fdae ee3d 2466 ff3b 01a6 c7bd bc17 133e
00000330: 6dd7 483e 3a14 19bd 26ab 30bd 5d1b debe
00000340: dd95 173e 8034 c43e 7709 33bc cc17 4d3e
00000350: b552 44be 3a92 0dbe 5d06 273e d1f5 863d
00000360: 2e7d 88bd bd7e babe ab7f 8fbe 2776 5e3d
00000370: 5f3b 4a3d 391d 12be 2523 7ebd 02a9 463d
00000380: ed75 c73d 1d7b 91bc 1651 743e aba4 623e
00000390: d27f c03e b56a 8e3e d4ff 533e f280 bd3e
000003a0: f2ba 7dbe e2f1 32be f24b 95bd 510d 083d
000003b0: e6f5 19bd 1061 9abe 83f2 29bf bc92 95be
000003c0: 8a76 1bbe 5815 5abe 5f8d 82be d038 0fbe
000003d0: d165 c2bd 1b07 ca3d 7f22 aabb bb33 09be
000003e0: 78e4 003e 1f24 0e3e 568e 773e 9a11 83bd
000003f0: 8040 833d e238 423e 62f0 973d 4ecd c53d
0.27372208 0.057119254 -0.3231145 -0.04414569 0.043720197 0.3100791 -0.074012 -0.46357977
-0.5140202 -0.12408461 -0.15931767 -0.3473051 -0.21015102 -0.07184137 -0.013700512 0.0014956314
-0.035270248 0.15039109 0.21942188 0.13158037 -0.13348466 -0.26222387 -0.2010645 0.12153998
0.16787452 0.1264617 -0.32208914 -0.17605825 -0.17777497 -0.27218497 0.036456056 0.043282755
0.27900404 0.049233034 0.07038422 0.27082357 0.20876226 0.24907334 0.4691783 0.54103607
0.09793649 -0.18692932 0.045082826 0.14234848 0.15776101 -0.1716766 -0.13071553 0.08983949
0.04096047 -0.20505007 0.28483877 0.09359059 -0.019524433 0.50700974 0.3510471 0.32339802
0.01038232 -0.59025836 -0.4124933 0.03401897 -0.19993457 -0.39223105 -0.22164531 -0.23008417
-0.036575794 -0.14980762 -0.18017021 0.106297344 0.10351057 0.09765016 -0.019001037 -0.2740905
-0.13449971 0.20358099 0.12445176 0.06592614 0.27918586 -0.11084546 -0.11489042 0.18743975
0.13283682 0.19816388 0.18836233 -0.26156735 0.057319168 0.0704503 -0.16789381 -0.05291855
-0.19386946 -0.056593195 0.09673444 -0.060858347 -0.17702287 -0.033385273 0.06935794 -0.0629072
0.007874151 -0.10078146 0.13623457 0.06357817 0.01577303 0.1138076 -0.12154112 0.15509519
0.14330916 0.01505069 -0.06312178 0.44366166 -0.021724474 0.10068984 -0.14282058 -0.37176996
-0.12175686 -0.3925566 -0.004218173 0.14004506 -0.06300049 -0.21117951 -0.09376933 0.014614444
0.1959644 0.12884684 -0.15900509 -0.016131125 0.08850564 -0.015041782 0.06941153 -0.13665259
-0.18663833 0.0664246 0.025252117 0.19748895 -0.032240994 0.025392646 0.12108947 0.06990973
0.0006229257 0.02335261 -0.2734938 -0.048543606 0.06421712 -0.05173044 -0.028552068 -0.001103391
0.037897296 0.044710185 0.01886207 -0.25753897 -0.009117439 0.07883345 0.079474024 -0.08275905
0.02270378 0.3632399 0.56422836 0.09912676 0.059223846 -0.3273866 0.5418172 0.6669979
0.19896635 0.31618932 -0.3779558 -0.13335772 -0.06064036 0.07565438 0.19249465 -0.0936783
-0.11611965 -0.07419766 0.069058105 -0.051300634 0.0725133 0.025234584 0.011098786 0.16719122
0.108421214 0.14678417 -0.03639928 -0.017752819 0.02782624 0.25431046 0.10287386 -0.057555724
-0.08513606 -0.090877995 0.05420093 0.04282073 0.022452801 -0.096143365 -0.06324587 -0.07153543
0.116724886 0.042015508 0.09372216 -0.07332915 0.05235052 0.06323102 0.13358591 0.0075977976
0.1165447 0.0077941585 -0.097484596 0.14364523 0.19613428 -0.037372805 -0.04313197 -0.43380252
0.14803262 0.38321304 -0.01092755 0.20028609 -0.19172175 -0.13825312 0.16311021 0.065898545
-0.06664501 -0.3642482 -0.2802709 0.054311898 0.049373027 -0.1426896 -0.062045235 0.048501022
0.097392894 -0.0177589 0.23859057 0.22133128 0.3759752 0.27815786 0.2070306 0.3701244
-0.24778345 -0.17475083 -0.07289876 0.033215825 -0.037588023 -0.30152178 -0.6638567 -0.29213512
-0.15181938 -0.21297204 -0.25498483 -0.13986516 -0.09492076 0.098646365 -0.0051921005 -0.1339864
0.12587154 0.13880967 0.2417539 -0.063998416 0.06408787 0.18967012 0.07418896 0.096582994

bias f4 [120]
00000000: ed8e 3d3d f892 1dbb 1505 3cbc 7ed3 29bd
00000010: 005c 093c a71c bc3d 9013 eb3b 22fe babc
00000020: 1cab ccbb e8e8 ac3c d6df 85bc 06b4 eebc
00000030: f7c0 64bc d8bc 5b3d 2784 ed3c 23bd 03bd
00000040: c205 033d 77b9 b3bc 5ca8 32bd 2302 303d
00000050: ea50 16bd 586e 00bd 417d 50bd be43 803d
00000060: 3a8c f33c 1dd4 643d 1b8a 833c 7b5c 2a3d
00000070: f17c 99bc c547 26bc 97aa e1bc e1cf 2fbc
00000080: a8a2 34bc 9bfc 163c e3e3 033d 7b44 e23b
00000090: bc06 583c 3227 ca3c a782 6cbd dab9 223d
000000a0: 0df8 85bd 0299 70bc 303c a1bc c5f9 e2bb
000000b0: 19d3 02bc b838 a1bc db07 db3c 9085 a0bd
000000c0: b5b5 a03c d805 e4bc f26d 473d aa23 8f3c
000000d0: f764 7c3d 8fd3 a43c 7fe5 5b3c c8af c7bc
000000e0: f49c 5ebd 613f f6bc c00d 243c f470 903c
000000f0: 0739 b13d 412d 913d 0309 0f3d 0b49 bc39
00000100: b3df 4d3c 060c 80bd 087f 2f3d 9d78 813c
00000110: b809 e8bc 3ea9 96bc 8095 d3bc 16db 4dbd
00000120: 1db5 293c 04d9 7b3c 0436 fb3c 79d4 b63b
00000130: 1c32 edbc a825 283b 6ab7 333d 0180 20bc
00000140: b0d2 223b 3bc2 083d 17fa 0f3d 4aa0 1d3d
00000150: 7a4b 67bb 6311 9f3c 2331 b2bc ac8a 3ebd
00000160: c051 673c 1b6e 06bd 4daf 43bd 4ddb 1ebd
00000170: 032c aa3c dd4f 583d 0ed1 a23b 9457 193d
00000180: 7616 953c a424 06bd 7f55 103c 0689 9d3c
00000190: 860d 3cbd 3fbb a8bc 4739 cdbc 4cfc 603d
000001a0: 7454 a03c 8bd4 4cbc 3d6c d0bc ab36 06bc
000001b0: fb36 b03d 3e93 b73c fc76 d1bd f342 8c3c
000001c0: a2ac 46bd 4456 c73c bf9a 9b3d 68d8 fb3c
000001d0: 97b1 a0bc b613 f6bc 7566 3d3d f647 6e3d
0.046278883 -0.00240439 -0.011475821 -0.04146146 0.008383751 0.091851525 0.007173963 -0.022826258
-0.0062459838 0.021107152 -0.016342085 -0.029138576 -0.013962022 0.053646892 0.02899368 -0.032162797
0.031987913 -0.021939022 -0.04361759 0.042970788 -0.03669826 -0.031355232 -0.0509007 0.06262921
0.029729951 0.05586635 0.016057065 0.041592102 -0.018736335 -0.010148947 -0.027547164 -0.010730715
-0.011025108 0.009215499 0.03219975 0.006905136 0.013185199 0.024676893 -0.057741787 0.039728023
-0.065414526 -0.014684917 -0.01968202 -0.0069267475 -0.0079849 -0.019680366 0.026737144 -0.07837975
0.019617895 -0.027834818 0.048688836 0.01747306 0.061619725 0.02012041 0.013421415 -0.024375811
-0.0543489 -0.030059518 0.010013044 0.017631985 0.08653455 0.070887096 0.034920704 0.00035912576
0.012565541 -0.06252293 0.042845756 0.015804583 -0.028324947 -0.018391248 -0.025828123 -0.050257765
0.010358122 0.015371565 0.030665405 0.005579528 -0.028954558 0.002565721 0.04387609 -0.0097961435
0.0024844818 0.033388358 0.035150614 0.03848294 -0.003529279 0.01941747 -0.021751946 -0.046518967
0.014118612 -0.03281985 -0.0477746 -0.03878336 0.02077294 0.05281054 0.004968769 0.037437037
0.018199187 -0.032749787 0.008809446 0.019230377 -0.045911334 -0.020597098 -0.025051726 0.05492811
0.01957152 -0.012501846 -0.025442237 -0.008191745 0.08604237 0.022409078 -0.102277726 0.017121768
-0.04850448 0.024333127 0.07597875 0.030742839 -0.019615931 -0.030038696 0.04624029 0.058174096

weight f4 [84, 120]
00000000: 8a4e 1ebf aea3 063f 5332 083e 274b b5be
00000010: 87e1 f5bd ee85 463d 3f7e 8bbe 91e2 d8bd
00000020: 7b49 32bd 1c7e ab3d 3321 89be b250 f83d
00000030: 36e3 2c3f 3b2f 2a3e 90fe 17bd 7987 13be
00000040: e8c3 3d3e 623e 27bc 2092 14be a945 eebe
00000050: fc64 b3be c190 63bf 993e aa3d c371 e0bd
00000060: ccc0 bd3c fcd1 303d dc3a 323e fa8e f2bd
00000070: a041 abbe 9aa4 8cbb b921 b8bc dfda 27bf
00000080: e809 94be e4eb 03bf 6b3b 083f f661 863e
00000090: 1e7e 06be 1280 34bd 6524 d43b aecf 8a3d
000000a0: e7d0 8e3d 82c4 9ebe 9f47 c43e 4f59 26be
000000b0: f0d6 ef3e f794 973e 6323 c3be 7395 20be
000000c0: 8555 253e e1cc a0be 163b eebe 34f7 7ebe
000000d0: e108 a4be a731 4f3e 5569 b7bd 0d09 e6be
000000e0: 2956 233f b698 2a3e 51f8 243e e452 56bd
000000f0: 80cf 823e c4f2 523e 6838 c03e 7cb9 cd3e
00000100: c686 0b3e 43cd 02bf adbf f43d 4776 1d3f
00000110: dc4f 303d 63c4 5f3f 000a dabe 1775 633e
00000120: e7e4 e8bc b53b f33d 4167 803e 7fec 2a3e
00000130: 3554 6ebc 7960 783e c867 e8bc 6b92 933e
00000140: 765b 2abd 54af b5bb d2bb 8d3e d82a 1a3e
00000150: b0cf cdbe 0656 8e3e ef9d 81bc 15e7 e93d
00000160: e46c 673e de7d 333e 26e3 153e 244a 1d3e
00000170: a3ba 26be bbf5 383e faa6 14bf 3f98 333d
00000180: 7247 a13e 57f1 bc3e 8c03 61bd c253 f13d
00000190: 22b5 a93d 5987 023e 9173 83be a405 eebe
000001a0: be61 183f 81af 2bbf 14ee 5abf e6a3 ee3d
000001b0: 04d2 2a3e 0bdf a1be f821 563e b12b a03e
000001c0: c5ed 0cbd 2784 e7bb 9ea6 533e ed01 083d
000001d0: cb3c 65bd 720a 5abe 7abb 773e aa1b cebe
000001e0: ebf7 693e 8669 c83e 5678 133e 604b 2c3e
000001f0: cc32 253d 82b6 7dbe e5a2 013e 9cb7 253d
00000200: e48e b0be d296 77be 89ca 2dbe 8905 d73d
00000210: c083 b33e 5163 fb3c 609e 98be 0b4b 1ebe
00000220: fb78 39be 2854 a53e 103a afbe b8df 12be
00000230: dae0 cb3e cb2b c53e 9066 99bd 1831 90bd
00000240: 8b6f c3bd 6280 a83d 82fe 0a3c 6fc5 a3bd
00000250: 2c6f 713a a66a a1bd 114c 2f3f 151b a23e
00000260: e36f e73e 3ca5 d53d 925a 883e cc58 463e
00000270: 261e 9cbe 15b3 d8be a954 a13e 834c 77be
00000280: f349 ad3e 2bd1 963e cf04 da3d 5ed8 91be
00000290: 0457 213e c7e3 163f a3f3 c8be 61fd 393d
000002a0: 1a58 2abe a170 e4be e056 993e c7af 863e
000002b0: 730f 353c ae05 39be 50fe fbbd 69b2 a4be
000002c0: 2ed5 073e d795 103e c60b e93e 3919 ac3d
000002d0: a90c 47be e357 bb3b 1cbc a4be 7151 87be
000002e0: a0fc 1d3e 999e 813e 6e23 acbd ae03 173e
000002f0: 6c7f 8a3e 308c ae3c 8849 8e3e d6e5 273e
00000300: a97e 05be 606e ebbe ffa1 79bd f42a 63bd
00000310: 42d2 e8be 8e50 0cbf 96a0 ca3e eb8c 5ebe
00000320: 27f6 293e 0236 1bbd 872c 9b3d 568d 8dbe
00000330: b50e 40be 0621 f4be d47f c33e f540 693d
00000340: f5d5 e63d 13bd 093e 6e74 833e f778 5bbc
00000350: d822 653d 1d79 233d 2e10 023d d27c a9be
00000360: edc0 36be f497 ae3e 7f19 8dbe d9bd 0bbf
00000370: 3fe3 a03e 5620 b63e 0d4e e7bd 17e7 16be
00000380: 8515 ea3e be17 113d ad35 7abe 2161 093d
00000390: 1929 8bbe 94bc 7f3d c217 8c3e 2997 55be
000003a0: 30a7 b7be 991d 88bb 69bb 90be e20a c13e
000003b0: 7673 f53d 55e0 ecbd 8efe dd3e edda 753d
000003c0: 9d54 70bd d6a6 b73d e2de 34be ab5d a03e
000003d0: 14f2 f8bc 1c0b 8ebe 7af6 db3d 6f7a 43be
000003e0: 53f2 59be 71a8 2cbe a384 39bd c952 213e
000003f0: 39d7 b73b 66c4 9abd 7e1c 4dbf b0c6 c2bc
-0.6183859 0.52593505 0.13300447 -0.354089 -0.120059066 0.04846757 -0.27244756 -0.10590089
-0.043527108 0.08373663 -0.26783141 0.121247664 0.67534196 0.1661958 -0.037108004 -0.14407147
0.18531764 -0.010207744 -0.14508867 -0.4653752 -0.35037982 -0.8889275 0.08312721 -0.10959198
0.023163222 0.043169007 0.17405266 -0.11843677 -0.33448505 -0.004292083 -0.022477018 -0.65568346
-0.28913808 -0.51531816 0.53215665 0.26246613 -0.13134047 -0.04406745 0.006474065 0.06777893
0.06973439 -0.310093 0.38335893 -0.16245006 0.46843672 0.2960584 -0.38112935 -0.1568201
0.16145904 -0.3140631 -0.46529454 -0.24898988 -0.32038024 0.20233785 -0.08955637 -0.4492878
0.63803345 0.16659817 0.1611035 -0.052325144 0.25548935 0.2060042 0.37543035 0.40180576
0.1362563 -0.51094455 0.11950622 0.615086 0.04304491 0.8740904 -0.42585754 0.22212635
-0.028429462 0.118766226 0.25078776 0.16691779 -0.014546444 0.24255551 -0.0283698 0.28822646
-0.04159113 -0.0055445824 0.27682358 0.15055406 -0.40197515 0.27800006 -0.015822379 0.114210285
0.22600132 0.17528483 0.14637432 0.15360314 -0.16282134 0.18062489 -0.58067286 0.043846365
0.3149982 0.36902878 -0.054935023 0.11783554 0.082865015 0.12746944 -0.25674108 -0.46488678
0.5952414 -0.6706467 -0.8551953 0.11652355 0.16681677 -0.3161548 0.20911396 0.31283334
-0.034406442 -0.0070653143 0.20669028 0.03320496 -0.05596618 -0.21293047 0.2419261 -0.4025548
0.2284848 0.39143008 0.14401373 0.16825628 0.040331647 -0.24776652 0.12659796 0.040458307
-0.34484017 -0.24178627 -0.16971792 0.104991026 0.35061455 0.030687006 -0.2980833 -0.15458314
-0.18112557 0.3229077 -0.34223986 -0.14343154 0.39819986 0.38509974 -0.07490265 -0.07040614
-0.095427595 0.08227612 0.008483531 -0.07996642 0.00092099863 -0.0788167 0.68475443 0.31661287
0.4520255 0.104319066 0.266316 0.19369811 -0.3049175 -0.4232413 0.31509903 -0.2415028
0.3384548 0.29456457 0.106454484 -0.28485388 0.1575585 0.5894131 -0.3924838 0.045407657
-0.1663517 -0.4461718 0.29949093 0.26305982 0.011051047 -0.18068573 -0.12304366 -0.32167366
0.13264915 0.1411966 0.45516795 0.08403248 -0.19438423 0.005717264 -0.32174766 -0.26429322
0.154284 0.25316313 -0.08405195 0.14747497 0.2705034 0.021307081 0.27790475 0.16396269
-0.13036598 -0.45982647 -0.060945507 -0.055460885 -0.45472914 -0.54810417 0.39575642 -0.21733443
0.16597806 -0.037893303 0.07576852 -0.27646893 -0.1875561 -0.47681445 0.38183463 0.056946713
0.11271278 0.13451032 0.25674766 -0.0133955395 0.055941433 0.039910425 0.03175371 -0.33103043
-0.17847033 0.34100306 -0.27558514 -0.5458656 0.31423375 0.35571545 -0.11294184 -0.14736591
0.45719543 0.035423033 -0.24434538 0.033539895 -0.27179793 0.0624357 0.27361876 -0.20858444
-0.3586974 -0.004153919 -0.28267983 0.37703615 0.11984913 -0.115662254 0.43358272 0.060023237
-0.058674444 0.08967368 -0.17663148 0.31321463 -0.03038887 -0.2774285 0.10740371 -0.19089673
-0.21283846 -0.1686113 -0.045292508 0.15754236 0.0056103733 -0.07556991 -0.801216 -0.023776382

bias f4 [84]
00000000: 7cf7 b93d 2465 6a3d 610e 95bd c31f 273d
00000010: dd24 4ebd 79af fb3a 4ae6 453d d51c 0b3b
00000020: 7af1 49bd ace6 d43d f36a 443d b91a 95bd
00000030: 34e9 813c f563 293c 58d2 07bd 3128 9f3d
00000040: 5f34 0a3d 8a2c 173d 28b3 52bd 6f4b bf3c
00000050: 07aa 09bd bdd9 23bd e1bb bcba ec4d 1dbd
00000060: 464c 533d 7ac7 e43c 2265 59bb 8f41 353d
00000070: a38c 283d a7d5 3f3d 98c2 153e e453 30bd
00000080: aef5 2f3d ad81 14bd a54e ba3d e9f3 08be
00000090: 3fa3 f03d a5fc 223b da65 603d d4f2 463d
000000a0: a773 6c3d 59c4 dabd c9f9 99bd aa5f 6f3d
000000b0: 07a8 55bd 8b87 39bd b0b0 1c3c a6e8 8bbc
000000c0: ebd2 e83c 0647 3c3d 12f1 213d 0dbd a53d
000000d0: c948 92bd a61e 003d 074f 34bd 338d c2bc
000000e0: 8cc2 c7bb 5884 0d3e 5777 833d 0d59 ce3b
000000f0: 9794 933d bf47 fcbd a91c 903c 867d 3fbd
00000100: eb8b 0e3c e9b1 183d d8ed 2bbd f8d9 b03c
00000110: edc0 52bb ee94 c73d b667 3e3d 6f5c 3ebc
00000120: cbc6 b0bd 0544 093d be6d 603d 06f3 a53d
00000130: eee6 d5bd 531e 1a3d e17a 51bd f001 91bc
00000140: e925 77bc efa9 9b3d d623 9dbd f543 b73d
0.09080407 0.05722536 -0.07278133 0.040801775 -0.050328124 0.0019202075 0.048315324 0.0021226902
-0.049302556 0.1039556 0.047953557 -0.072804876 0.01585827 0.010338773 -0.033159584 0.07771338
0.03374135 0.03690771 -0.051440388 0.0233514 -0.033609416 -0.040002573 -0.0014399254 -0.03840439
0.051586412 0.02792715 -0.0033171852 0.044251975 0.041149747 0.046834614 0.14625013 -0.043048754
0.042958908 -0.03625648 0.090970315 -0.13374294 0.11749887 0.0024869826 0.054784633 0.048571423
0.057727482 -0.106819816 -0.07518346 0.05844084 -0.052162196 -0.04529528 0.00956361 -0.017078709
0.028420886 0.04596617 0.039536543 0.08092699 -0.07142789 0.03127923 -0.04402068 -0.02374897
-0.00609619 0.13820016 0.06419247 0.006297237 0.07206076 -0.12318372 0.017591791 -0.046750568
0.008700351 0.037279043 -0.041974872 0.02158831 -0.003215845 0.09745203 0.046485625 -0.011618718
-0.08631667 0.033512134 0.05479216 0.08102994 -0.10444437 0.037626576 -0.051142577 -0.01770112
-0.015084722 0.07600772 -0.07672851 0.08948509

weight f4 [10, 84]
00000000: f02e 903e f43f 93be c2d5 b1be 76e7 39bf
00000010: da30 2fbf 12ff cabe 1120 e23e 8b4c 54bf
00000020: de47 10bf 9e97 8c3e 3099 1abf 35c2 a0be
00000030: 0cd1 2ebf 087b a43d 0932 d6be 1833 183d
00000040: 6824 bf3e 519a 123f 8749 413e c1e1 f63e
00000050: 6e0e 8cbe a079 353e 22c8 bebe eea3 5d3c
00000060: 1ee6 d9be d88c cf3e 9a7a 0b3f 0616 ac3e
00000070: 7338 0bbe 361f b1be c820 b9be 9ff6 993d
00000080: 7add c0be f20f 39bf c807 19bf 8980 c73e
00000090: 58c5 b13e 3a11 fc3d f57b 60be f274 71be
000000a0: 02a4 703e 77c9 08bf c4dd f53e 6e4d 92be
000000b0: d619 83bd 572a bcbe 7222 bfbd a5b5 35bf
000000c0: 8708 803e a58e 13bf 061b 1fbf 54a4 59bf
000000d0: 5015 b73e 1984 86be de60 023e 3c05 fabe
000000e0: a4fe 83be e1f1 1fbf bbeb fd3a 42dd 373e
000000f0: 9db5 ea3e e0d1 bdbe 89f8 ba3e d3b1 973e
00000100: 594b d83e 04ea dfbe d7c2 a63e f110 9e3e
00000110: da60 08bf 30d7 ca3e f39e 9a3e 2e58 dcbb
00000120: b2d4 53be 82b9 f03d 3e68 b43e 0e68 9bbe
00000130: 30c4 873e 6b13 a93e 8b77 94be 7f86 e23e
00000140: afd7 533e 0c47 9fbe b8e4 bebd 9fdc 363e
00000150: abb8 27bf 0eec c53e dd11 263f 2e08 80be
00000160: 18ea bb3e 781d ad3e 282b 783e 08b7 9d3e
00000170: 2fc4 ec3d f8ab 23bf 4101 533e 5288 febe
00000180: 8e55 1f3e 07fe 97be 4783 b6be 4484 e8be
00000190: 9060 9dbe 1404 8f3e 14df 06bf 7461 6bbe
000001a0: 15a2 d93e f179 513e 4ef9 8c3e 49c8 13bf
000001b0: ef50 9f3e fe30 fa3e 530c f2be 59c5 c0be
000001c0: 36fd 82be d6a9 b0be 7c6a d63e 95b7 56bf
000001d0: edb3 e3be 9482 a53e 95e2 433e e47a 5cbe
000001e0: eac9 5b3e fe58 f83d a33d f33e 265c 91be
000001f0: 09e4 61be 470f 33bf eca9 f0bd 2573 4f3e
00000200: 1c0e 683e c032 0ebf 2fc3 8e3e b974 7a3e
00000210: 4325 16bf 899c 133f 2955 6b3e 6e77 313e
00000220: d8be 38be cba9 c9be 1dd6 aebe a7fe c93e
00000230: 0cc6 0a3e 97f0 a93e 5fc7 d1be 69d3 ddbe
00000240: 39fc d93e b123 d03e 7fdd 8fbe ee5c 23be
00000250: b20c 963e c3a0 cabe 1b2c 0cbf a8ea 94bc
00000260: 307d 35bf 923f e6be fff4 a13e 7266 fabe
00000270: ea4f 273e 0267 bfbe 9d64 0dbf 72c7 ae3e
00000280: c598 45bf 0143 a83e f5a2 a93d 49d9 23be
00000290: 9361 b1be 1afb d43e de7e 1d3d da60 213e
000002a0: 5401 0cbf dd98 3ebe c925 05bf 2319 5b3e
000002b0: 7dfb 2abf 80fa 08bf 8817 8d3e 7cc7 26bf
000002c0: 90f6 853e cb26 40bf 7aa4 ebbc a164 23bf
000002d0: 49e3 c3be bd5d 04bf 39e0 4fbe 479f 7fbe
000002e0: 7851 8dbe 786c 633e 752e a83e 3952 833e
000002f0: a4cd 13bf d5b8 e83d 12ab 083f 2cb0 f43d
00000300: f335 a03e 399f 04bf bf72 973e 15dd cbbe
00000310: 035b f43e b93f acbe 5aab 51bf 1501 073e
00000320: 3caa 5e3e 2c2b 35bf eb37 d0be 088c 91bd
00000330: 49a1 c33e 8310 173e 4dbe 29bf 478b bf3e
00000340: ee44 acbd 5f6f e73e 7129 613e 27a3 453e
00000350: 8e87 9bbe ce21 8bbe 1993 3f3e 624d 45be
00000360: f28b f03e 22c2 ec3e 5b30 ddbe f188 eebe
00000370: 59f7 b03e f200 f0bb 9938 5e3e f144 333f
00000380: 49cd c73e 558c 13bf 9090 d8be 0bd1 f63d
00000390: b7a5 833d 36bf 983e 9975 25bf fb9a 04bf
000003a0: 0122 13bf eafa b03e 801b 1bbf e3c0 9cbd
000003b0: 9934 58be f79e 28bf c8cd af3e 6468 2ebe
000003c0: 8aa0 0c3f b2f1 ae3d da53 2dbf f858 04be
000003d0: a091 c63d a9f3 843c f8d5 c73e c0ec a73e
000003e0: 11d8 16bf f4c0 3fbd 97e8 0cbd 56e9 803e
000003f0: 7885 8abe baa4 8f3e 1425 bb3e a404 db3d
0.2816081 -0.2875973 -0.34733397 -0.72618806 -0.68433917 -0.39647728 0.4416509 -0.82929295
-0.5635966 0.27459425 -0.60389996 -0.31398168 -0.6828773 0.08031279 -0.4183505 0.0371581
0.37332463 0.5726672 0.18875705 0.48219112 -0.2735476 0.17722178 -0.37262064 0.013527853
-0.42558378 0.40537143 0.5448395 0.33610553 -0.13595752 -0.34594125 -0.36157823 0.07517742
-0.37668973 -0.72289956 -0.597775 0.38965252 0.34720874 0.12307973 -0.21922286 -0.23579767
0.23500064 -0.5343241 0.48020756 -0.285747 -0.06401412 -0.36751053 -0.09332742 -0.7098029
0.25006506 -0.57639533 -0.6215061 -0.8501637 0.35758448 -0.26272658 0.12732264 -0.4883212
-0.25780213 -0.6247845 0.0019372621 0.17955497 0.45841685 -0.37074184 0.36517742 0.29627857
0.42244986 -0.43733227 0.32570526 0.308723 -0.53272784 0.396173 0.30199394 -0.006724379
-0.20686606 0.11754133 0.3523578 -0.30352825 0.26516867 0.33022627 -0.28997454 0.44243237
0.20687746 -0.31108892 -0.093209684 0.17857598 -0.65516156 0.38656658 0.6487101 -0.2500624
0.36702037 0.33811545 0.24235213 0.30803704 0.115608566 -0.6393428 0.20605947 -0.4971338
0.1555998 -0.29685995 -0.35647032 -0.4541341 -0.30737734 0.279328 -0.5268414 -0.22986394
0.4250647 0.20456673 0.27533954 -0.57727486 0.31116435 0.48865503 -0.47275028 -0.37650564
-0.2558381 -0.34504575 0.41878116 -0.83873874 -0.4447321 0.32326186 0.19129403 -0.21531254
0.21463743 0.12126349 0.47507963 -0.28390616 -0.22059645 -0.69945186 -0.1175116 0.20258768
0.22661632 -0.5554619 0.27883288 0.24458589 -0.58650607 0.5766073 0.22981705 0.17330715
-0.18041551 -0.39387354 -0.3414773 0.39452097 0.13552111 0.33191368 -0.4097242 -0.43325356
0.42575243 0.4065223 -0.28098676 -0.15953419 0.2930656 -0.39575776 -0.547548 -0.0181783
-0.70894146 -0.44970375 0.3163223 -0.48906285 0.16339079 -0.37383276 -0.5523165 0.3413654
-0.7718623 0.3286362 0.08283035 -0.16000856 -0.34644756 0.41597825 0.038451068 0.15759602
-0.54689527 -0.18613 -0.5201078 0.21396308 -0.6678999 -0.5350723 0.27557015 -0.6514814
0.26164675 -0.75059193 -0.028764952 -0.6382542 -0.38259342 -0.51705533 -0.20300378 -0.24963103
-0.27601218 0.22209346 0.32847944 0.25648668 -0.5773566 0.11363379 0.5338603 0.119476646
0.3129116 -0.51805454 0.29579732 -0.3981711 0.47725686 -0.33642367 -0.81902087 0.13184007
0.21744627 -0.70769 -0.40667662 -0.07106787 0.38208988 0.14752392 -0.66306 0.37410948
-0.08411585 0.45202157 0.21988465 0.19300519 -0.30376858 -0.27174228 0.18708457 -0.192678
0.4698177 0.46241862 -0.43200955 -0.46588853 0.3456371 -0.0073243314 0.21701278 0.7002707
0.39023808 -0.57636005 -0.42297792 0.120515905 0.06428092 0.29833382 -0.64632565 -0.5179898
-0.5747376 0.34566432 -0.60588837 -0.07653978 -0.21113814 -0.6586756 0.34336686 -0.1703201
0.54932463 0.085421935 -0.6770607 -0.12924564 0.096957445 0.016229467 0.39030433 0.32797813
-0.5892344 -0.046814874 -0.034401502 0.2517802 -0.27054954 0.28055364 0.36551726 0.106942445

bias f4 [10]
00000000: 4851 d7bc f9f2 45bd c1b0 dd3d 0420 7a3c
00000010: d716 b7bd c1b4 fdbb be06 25bd 3405 a9bc
00000020: b5af 143d 1d8e 8ebd
-0.026283875 -0.04832742 0.10824729 0.015266422 -0.08939903 -0.007742495 -0.040289633 -0.020632364
0.03630038 -0.069607
